image_recognition/ImageClassifier.onnx (onnx, 202511 bytes, 10 tensors)

fc1.weight f4 [10, 2400]
00000000: c3c8 61bc 2b44 4cbc 2368 663b ae51 253b
00000010: bdba 613c 6590 c3bc 0228 0cbc 64df dcbb
00000020: 5379 863c c183 4cbc 09e0 d9bc 3fae 063a
00000030: d6a4 b53b 78f1 9cbc a0eb 143b bc9c 72bc
00000040: 7ae7 9ebc 7eb3 173c d258 0e3b 9566 853c
00000050: 7050 e3bc 1166 193c b04d 80bb 4437 dcbb
00000060: 1c48 96bb 51a1 8bbb 849e e2bc 4b8d 553c
00000070: 353a 16bb a9d7 dc3c d407 81ba 6b9d 1cbb
00000080: 9b7a d7bb f698 233c 9654 d9bb def0 1f3c
00000090: 914a 37bc 665c ab3c aeae 34ba e27a 313c
000000a0: 296c 073c 714b 9ebc 5936 83bc 444c 35ba
000000b0: 41c5 69bc 736b dfbb e95b 2dbc 8b30 b63c
000000c0: 7099 dbbb 5924 a53c 64bf 69bc d9b9 ab3c
000000d0: 2025 cabc b836 793c 7748 babb 0e85 aebc
000000e0: 472b 413c 421e b03b 197d 303b 98cc 5d3c
000000f0: 12fa 76bc 7d26 19bc c6c9 2cbc a2f5 bebc
00000100: f1f5 4dbc e864 0cbd 3c49 c7bb 9f8e 313c
00000110: 28bd e3bc e99b 00bc 8c1e 69ba 6bd4 9a3c
00000120: b268 81bc 04f9 503c 5fc8 0e3c b1f5 a0bc
00000130: 540f 3dbc 64cb 96bc cc63 15bc 5a33 63bc
00000140: 1635 4a3c 5708 0b3c f861 953b 36a1 61bb
00000150: f08a 95bc 0199 cf3a 8889 503c c768 fe3b
00000160: fc8a a13c a437 1f3c 852d 2e3c 735d 023d
00000170: d863 15bc 570b b2bb d152 633c 97b0 393c
00000180: d051 82bb 8773 7b3c 1c9e 973c be41 d13b
00000190: 165a c5bc 6e5d 13bd 52e2 273c a13f 3d3d
000001a0: 8a84 3b3d 0aa4 2cbc cf36 133d 1cc3 8c3c
000001b0: 862c 083c 2f83 2a3b fcbf 2abd a357 c3bc
000001c0: 8b69 8f3c 0ef0 7c3c fcfb 423d 1bac 003c
000001d0: 4dce 5ebc cfb4 83bc 19d0 b53c 7568 193c
000001e0: f82f 48bd 66b9 b0bc 5b42 8dbc 87be e2bc
000001f0: da7a d63b 7bab 5c3a 93a3 51bd 7fdd 61bd
00000200: e0dd c83c 3c77 a1bc 00bb cbbb 0454 efbc
00000210: 50a1 cabc fa98 1bbd 1472 993b 9222 b53c
00000220: c38a 2fbd ab85 dfbd c7ad 353d f938 ff3c
00000230: 5411 893c ae13 883a 8cef 10bd 4aa8 0bbd
00000240: a4b5 19bc 028e f5bc d8e4 34bd 3a7f a2bd
00000250: d248 923c 6302 bb3c 6695 ae3c ad89 ebbc
00000260: 68e8 d3bc 3aaf 3ebc a755 833c e3fb a8bc
00000270: d805 863b 9206 16bc a4a8 fa3b 4cd0 c2ba
00000280: 0d10 cd3c a05c bcbc 527c 07bd c62e a4bc
00000290: 281b f6ba 1702 d03c 57ef 4bba fa39 8f3c
000002a0: 2d4f 103d 93d7 83bc 5396 663d fe8d 8a3a
000002b0: 5560 78bc 359f 9a3c 593d eebb c6da 22bd
000002c0: 3089 44bd 2bdf 533c 7378 573d fed7 52bc
000002d0: 7b0b ca3d dea5 2ebc 3643 2bbd c441 2cb9
000002e0: 2884 073d 77b2 e439 8528 e2ba 1f63 2f3d
000002f0: 9ff5 363d ce02 ee3c a21b 913d 4ef4 b7bb
00000300: 3631 afbc 3c13 65ba 6942 f53c 10de f93c
00000310: 4aec dbbb a5de cb3c 328f 243d c62f 883a
00000320: ce2f 8e3c a35b 14bc 1240 49bc fb65 37bd
00000330: 3407 bdbc 1f92 32bd 9728 67bb 4e85 e33c
00000340: 7b34 57bd 5990 5a3a 0b8f 3f3b 8ac2 1c3d
00000350: c351 2a3d efc4 703d ae67 033e 1ea7 a23d
00000360: dd65 983d 22ab 683c c2c1 5fbd 3371 85bc
00000370: 9bc7 873c e5df e73c bfeb ac3c 8074 ad3c
00000380: 3f87 f9bb 53e8 a3bd 4f45 87bc 28cd 623d
00000390: 059f 10bd c8f6 d1ba a39a babb 95aa ec3b
000003a0: 4fa1 f7bb fe9c f73c c8a3 183d a039 63bc
000003b0: 9d18 f23c a5c7 443d 9ca2 983c 4b86 3ebc
000003c0: de78 dfbb ca8f 1bbb a077 51bd a580 84bd
000003d0: 9dd1 913d 91f9 203d 2e92 663d c81f fbbb
000003e0: ba34 443c 4708 edbc d16a 2b3c 7826 a6bc
000003f0: b77b ccbc 44d1 8fbd 6522 ec3c 4647 203c
-0.0137807755 -0.012467424 0.0035157285 0.0025225687 0.013777432 -0.023872564 -0.0085544605 -0.0067404974
0.016415274 -0.012482584 -0.026596086 0.0005137659 0.0055433316 -0.01915811 0.0022723451 -0.014807876
-0.019397486 0.009259103 0.0021720422 0.016284266 -0.027748317 0.009362713 -0.003915511 -0.0067204554
-0.004586233 -0.004261174 -0.027663477 0.013034175 -0.0022922878 0.026958304 -0.0009844252 -0.002389754
-0.006575895 0.009985199 -0.006632398 0.009762017 -0.011187212 0.020918082 -0.00068924844 0.01083252
0.0082655335 -0.019323083 -0.016017126 -0.00069159665 -0.01426822 -0.006818229 -0.010580995 0.022239944
-0.006701641 0.020158933 -0.0142668225 0.020962643 -0.024675906 0.0152108 -0.005684908 -0.02130368
0.011790103 0.0053747008 0.0026930033 0.0135375485 -0.01507427 -0.009347555 -0.010546153 -0.023310486
-0.012570844 -0.03427592 -0.0060817283 0.010837226 -0.027800158 -0.007849672 -0.00088927965 0.018900117
-0.015796993 0.012754682 0.008714764 -0.019648405 -0.011539299 -0.018407531 -0.009118032 -0.013867224
0.012341758 0.008485875 0.004558798 -0.0034428365 -0.018254727 0.0015838445 0.0127281025 0.0077639553
0.019719593 0.009717856 0.01063097 0.0318274 -0.009118043 -0.0054334807 0.013874725 0.011333606
-0.003977038 0.015347368 0.01850801 0.006386011 -0.024090808 -0.035977773 0.01024683 0.04620326
0.045780696 -0.010537157 0.03594094 0.01718288 0.008311396 0.0026018133 -0.041686997 -0.0238455
0.017506381 0.015438093 0.047603592 0.007853533 -0.013598991 -0.016077427 0.022193955 0.009363283
-0.04887387 -0.02157278 -0.017243555 -0.027678741 0.0065454068 0.00084178866 -0.051181387 -0.055142876
0.02451986 -0.019710176 -0.0062173605 -0.029214866 -0.024735123 -0.037987687 0.0046827886 0.022111211
-0.042856943 -0.10914167 0.04435518 0.031155096 0.016731896 0.0010381842 -0.0353847 -0.03409604
-0.009381685 -0.029974941 -0.044163555 -0.07934423 0.017856989 0.022828287 0.021311473 -0.028752172
-0.025867656 -0.011638457 0.016032053 -0.020627921 0.004090052 -0.00915684 0.007649498 -0.0014863103
0.025032068 -0.022993386 -0.033077545 -0.020041835 -0.0018776404 0.025391622 -0.00077795 0.0174837
0.035231758 -0.016094005 0.056295704 0.0010570881 -0.015159686 0.018874744 -0.007270497 -0.03975942
-0.047982395 0.012931625 0.052605104 -0.012868879 0.09865471 -0.010659663 -0.041812144 -0.00016427698
0.03308502 0.00043620515 -0.0017254507 0.04281914 0.044667836 0.029054072 0.07085349 -0.00561384
-0.02138577 -0.0008738523 0.029938893 0.030501395 -0.0067115175 0.024886439 0.040175624 0.0010390214
0.01735678 -0.009055051 -0.012283342 -0.04477499 -0.023074724 -0.043596383 -0.0035271996 0.027773526
-0.052540284 0.00083375495 0.0029229547 0.038271464 0.04158188 0.05878156 0.1283252 0.07942031
0.07441304 0.0142009575 -0.05462814 -0.01628933 0.016574671 0.028305003 0.021108506 0.021173716
-0.0076149995 -0.08003297 -0.016512541 0.055371433 -0.035307903 -0.0016018981 -0.0056947037 0.0072224834
-0.0075570713 0.030226227 0.03726557 -0.013868719 0.029552752 0.04804196 0.018632226 -0.011628698
-0.0068198284 -0.0023736828 -0.051139474 -0.064698495 0.07120059 0.039300505 0.05629175 -0.0076637007
0.011975462 -0.028934611 0.010462479 -0.020282015 -0.024961336 -0.07022336 0.028824994 0.009782618

fc1.bias f4 [10]
00000000: b9ad dd3c a558 963c 73bb b2be 85f0 c6be
00000010: 79b9 b1be 9d8a c3be d871 cfbe 12b6 c7be
00000020: 36ce 9bbe 7fc4 aabe
0.027060376 0.018352816 -0.34908637 -0.38855377 -0.34711817 -0.3819169 -0.40516543 -0.39006096
-0.30430764 -0.3335304

onnx::Conv_48 f4 [12, 3, 5, 5]
00000000: 0c99 c8bd 3d0f 603e 70a2 26be 9650 7dbd
00000010: 90bc 00be 7358 043e 104a bd3c 4994 a9bd
00000020: 0254 6cbe 5f5b 913d 86a4 b43d ab89 22bd
00000030: 09b3 15be 12e5 89be c057 89be c7af 043e
00000040: 362e 833e 2178 22be f967 0a3d cfc0 9ebe
00000050: 1fd0 e33d efa7 453e 2732 76bc a2d1 703d
00000060: 8ce9 95be 4112 f9bc c139 c1bd 8d36 20be
00000070: d0bf d43c db11 c63d d58c 763e 6c63 583c
00000080: 2538 db3d 0f70 5dbe efd9 4d3d 3120 e53c
00000090: 5723 3b3e cd18 eb3d 68f9 be3d 54be 00be
000000a0: b097 6a3e f7ce cfbd 3856 e33c 0ba1 2a3e
000000b0: 135e 79be f5c0 db3d e9f9 5e3e 8ca3 b93a
000000c0: 6b16 223e 2e20 00be 6ae5 de3d c597 813d
000000d0: 942e cbbc 2698 03be 338b 21be 076b 5cbd
000000e0: 5f13 743b 773f 25be 048d 71be d979 ec3d
000000f0: 2367 223e 293b f73d eda3 20bd ddb4 83be
00000100: 2f14 35be 652f ab3d bd71 75be 4e17 e4bd
00000110: 0d6c 413d 901f 5cbe ec09 da3b 8de2 0e3e
00000120: 6ed9 ec3d 2164 6cbe 1a9a 90be 7b59 0b3f
00000130: c5e4 ec3e 0be5 29bf f7fb ae3c 730a e5be
00000140: aa74 c83e 6af9 72bd 65b2 10be 85bf e83e
00000150: 66a7 12bf 7a6f 21bf ce98 66be 544f 433e
00000160: 9698 c53e f160 f6bc 2152 ebbe 9a7d 963e
00000170: 1db4 03bd f1db b8be 48f8 cb3e 55b9 d53e
00000180: ea67 3cbc ecb8 c4be 8aff 09bf 3159 4bbf
00000190: b5c9 fd3b aef6 ca3d a990 89be a522 8b3e
000001a0: 12db e23e 7c06 3b3e b58a 1e3f 95ae 05be
000001b0: 4e80 6a3f 7410 8ebd 7780 cd3e 2d2a 57bd
000001c0: 0047 f9be 6670 533f c9d5 643f c31b 113f
000001d0: 271d 2d3e 3774 1ebf 9212 b13e 50e6 473f
000001e0: c2a1 b33e 2d52 1dbf 27e2 4ebf 84e0 06bf
000001f0: 8d74 fd3e ba79 2f3f 98cd 983d a025 2dbd
00000200: 225f d6be 9c54 803e 677b cdbc 04dd 09be
00000210: 59d7 2d3f 7e3f e7bd 1011 a13e ef11 5b3e
00000220: 12d5 ccbe 46dc e4bd ec65 793f 487a 083e
00000230: 6879 443d 8cbd bfbc b923 dabe 9ec6 293f
00000240: bd7f 9dbe 6191 163f 063f eabe e1d9 31bf
00000250: e281 fe39 1907 bcbd 04dc 6b3d 3572 2abe
00000260: e093 6fbe 959c 9dbe 4735 db3d 686f bebd
00000270: d5d6 5abe 4701 83be 3139 b13d 7717 f8bd
00000280: 8dee d23d 1567 2dbe 08f0 433e 9276 583e
00000290: 5a1d 9ebd efa9 8f3d ecef 653e a501 6d3e
000002a0: 7f7e 7ebe 5655 3ebe f3af 4b3e 3fa3 08bd
000002b0: 249b 92be f0c6 35bd c19e bbbe e017 c5bd
000002c0: 6ebf 6e3d 4ada 3abe 58e9 44be 3cc0 80bd
000002d0: c28f 4fbe 2611 f33d 93ae 1b3e 71fc df3c
000002e0: 468a c7bd 7630 bf3d 60ba f2bd eb49 b2bd
000002f0: 180d 77bb 4111 1d3e d5d0 963e 2f0f ca3e
00000300: 5437 6a3e aa08 c1bd 21d3 d03d 4a70 203e
00000310: ce75 2f3d c4ce 02be d7ed 553e 4897 1b3e
00000320: fb37 93be 6ecf 593e 35e5 513d cb5f 40be
00000330: ada6 3fbe 51cf e3bd 7505 863e c7fd 893e
00000340: b9f5 97bd e20e c93d 7c98 39be 7081 b83e
00000350: 6e96 0a3e a125 2a3e f1d6 eb3d 314d 433e
00000360: 0b3d c23e a3bf a03c f001 b63e 9956 35bd
00000370: 1b9b de3d b1da 183e 4c9f 5abd be8a 14be
00000380: 0edc 393c 16ae b9be e05e b7be 8844 b9be
00000390: d143 07be 6b06 58be ac2c b0be f94f 55be
000003a0: 34b5 823d 5866 6a3d b143 9dbd 0bd8 9d3d
000003b0: dec8 d13d 46e7 9b3c a440 84bd f594 983d
000003c0: d5d3 82be bd42 0dbd 80cc 56be bbfe ba3d
000003d0: 9b2e d73c 0699 abbd f284 66bd 1930 3d3d
000003e0: 564f bd3d b894 00be 91cc 1a3e eb52 3ebe
000003f0: b9ab a1be 1f10 1d3d f124 7cbe f93d fb3d
-0.097948164 0.21880813 -0.16272902 -0.06184443 -0.12571931 0.12924366 0.023106605 -0.08280236
-0.23078921 0.07097506 0.08820443 -0.03968207 -0.14619078 -0.2693258 -0.2682476 0.12957679
0.25621194 -0.15866138 0.033790562 -0.31006476 0.1112368 0.19302343 -0.015026606 0.05879367
-0.29279745 -0.030404212 -0.09434844 -0.1564581 0.02597037 0.096713744 0.2407716 0.013207298
0.10704068 -0.21624778 0.050256666 0.027969452 0.182752 0.1147934 0.09324914 -0.12572604
0.22909427 -0.10146897 0.027751073 0.16662996 -0.24352293 0.10730163 0.2177502 0.0014163121
0.15828864 -0.12512276 0.10883601 0.06327776 -0.024802484 -0.12851009 -0.15775757 -0.053813007
0.0037242991 -0.16137491 -0.2358895 0.11546678 0.15859656 0.12071831 -0.03921883 -0.25723925
-0.1768348 0.08358649 -0.23969169 -0.111372575 0.047222186 -0.21496415 0.006654015 0.1395361
0.11564909 -0.23085071 -0.2824257 0.5443341 0.46268287 -0.66365117 0.02136038 -0.44734535
0.39151508 -0.05931989 -0.14130552 0.45458618 -0.5728668 -0.63060725 -0.22519228 0.1907323
0.38592976 -0.030075522 -0.45961097 0.293927 -0.03215419 -0.36105302 0.3983786 0.4174296
-0.011499384 -0.38422334 -0.53905547 -0.7943297 0.0077449926 0.09910332 -0.2686818 0.2717487
0.44307762 0.18264192 0.619304 -0.13054879 0.9160203 -0.06936732 0.40137073 -0.052530456
-0.4868698 0.8259338 0.8938871 0.56682986 0.16905652 -0.6189608 0.3458448 0.78085804
0.3508435 -0.61453515 -0.8081383 -0.52686334 0.49502984 0.68545115 0.07461089 -0.04227221
-0.41869456 0.25064552 -0.025083257 -0.13463217 0.6790672 -0.11291407 0.3145833 0.2139356
-0.4000631 -0.11174826 0.97421145 0.13327897 0.047967345 -0.023405813 -0.4260538 0.6631869
-0.3076152 0.5881558 -0.45751208 -0.6947308 0.00048543426 -0.09181041 0.05758287 -0.16645129
-0.23396254 -0.30783525 0.10703521 -0.09298593 -0.21371014 -0.25586912 0.086534865 -0.121138506
0.10299406 -0.16933854 0.19134533 0.21138981 -0.07720442 0.07014834 0.22454804 0.23145159
-0.24852942 -0.1858724 0.19891338 -0.03335881 -0.28633988 -0.044379175 -0.36644557 -0.096236944
0.05828803 -0.18247333 -0.19229639 -0.06286666 -0.20269683 0.11868505 0.15203314 0.027342053
-0.097431704 0.09335415 -0.118519545 -0.08705505 -0.0037697013 0.15338613 0.294562 0.3946471
0.22872669 -0.09425481 0.1019652 0.15667835 0.042836957 -0.12774187 0.2089151 0.15194428
-0.28753647 0.21270534 0.05124398 -0.18786542 -0.18715926 -0.11123527 0.26176038 0.2695143
-0.07419915 0.09817292 -0.18124574 0.36036253 0.13533947 0.16615917 0.11515606 0.19072415
0.37937197 0.01962263 0.35548353 -0.04427204 0.10869428 0.14927174 -0.053374574 -0.14506051
0.011343969 -0.3626563 -0.3581457 -0.36185098 -0.13209464 -0.21096198 -0.34409082 -0.20831288
0.06382218 0.05722651 -0.07678927 0.077072226 0.102433905 0.019031178 -0.06457642 0.07450286
-0.2555224 -0.034487475 -0.20976448 0.09130617 0.02626734 -0.08378796 -0.05627913 0.046188448
0.09243648 -0.12556732 0.15117098 -0.18586318 -0.31576326 0.038345452 -0.24623467 0.1226768

onnx::Conv_49 f4 [12]
00000000: 7e10 6cbd b59e 1abf 5a12 21be 980f 62bc
00000010: 97a0 06be 9ece b0bd 5e76 433e b630 523e
00000020: f1a2 88be 00cf 7dbe 1354 70be 6294 2cbd
-0.057632916 -0.6039842 -0.15729657 -0.013797663 -0.13147198 -0.08633159 0.19088122 0.20526394
-0.26686814 -0.24785995 -0.23469572 -0.042133696

onnx::Conv_51 f4 [12, 12, 5, 5]
00000000: 6c48 82bd e522 ff3c 625a 3e3c 43e4 07bd
00000010: a35a 2e3d 5371 6fbd ce76 a6bc 3b68 cf3c
00000020: e8f0 8abc 7a5d 173c 1409 393c a4b4 acbc
00000030: 8bcb b73c 684f 853a 4796 443c 0dcc 073c
00000040: 284f 9cbc ffe0 4dbd 0136 1fbd a11b f2bc
00000050: b4bc c13c 3de3 233c 94b8 0d3d ef81 e1bc
00000060: 9bc2 d0bc 56c7 533d 6f44 d6bb 9e61 0dbd
00000070: c1ec 3dbd 1441 35bc 2ca7 8c3d a9d5 8abc
00000080: e97e 4bbc 8400 01bd 443f 45bc 1585 c03c
00000090: b171 513c ce9f 59bd 21bf 8a3c b86a 353d
000000a0: 776e 63bc abea 3bbb 8932 e3bb 525f b1bb
000000b0: 83c8 17bd 9f34 a3bd b943 41bd 6734 11bd
000000c0: 942f 1b3d 648b bb3c c1f4 8bbd a5d8 0dbd
000000d0: 2888 b43c cdeb d83c 11dd 03bd 1c3d 31bc
000000e0: bedd 8ebd 8a91 80bd 8c36 59bd bb4e 22bd
000000f0: a474 f3bc 4153 5bbc e269 9dbd 6a36 843c
00000100: 9248 513d d087 4abd 6288 cdbb 383c c23b
00000110: 6ee1 853c b26b 013c 2273 35bc b0fd 4cbd
00000120: bd08 a0bd 5a68 5d3b ef2f 67bd fa67 223c
00000130: 55e6 6d3d 65b5 133d ab20 fcbb d358 ddbc
00000140: b60a 7b3d cbdb 9a3d e6b1 ab3a 2698 823d
00000150: 6eb7 c33c 0af0 c23d aabf b73d 8688 093d
00000160: fd60 d43c 8209 e33b 2023 ca3d cb40 b83d
00000170: af65 9a3c 8843 253b a784 c0bb f1cc ac3d
00000180: 3b29 db3c 547f f53c 17ef ba3b 48ad 803b
00000190: 6ea6 7fbd e253 38bc a202 0e3c f4ff ff3c
000001a0: 2ded 9ebc 6ae6 8dbd 8c15 26bd d917 ce3c
000001b0: 1658 4e3d 36a7 913c 987d ad3b 9f19 68bb
000001c0: edd1 dabb 0be7 bf3c 6321 1abd d4ed fcbc
000001d0: 6297 80bb feb6 4d3b cbb3 e5bc ed4c 9a3b
000001e0: 50e4 133d 7c0e 23bd 5df2 39bc 455e fdbb
000001f0: 725e cdbc 80f3 0fbd 7eb2 2d3c 385b b6bc
00000200: 4f2b acbb 99d8 5cbd 0f1f a23c 0f5b 1abd
00000210: 1d56 bcbc f76e 5bbd 63ba f8bc c592 983c
00000220: f972 84bd 9285 9fba bb31 88bd 9076 8bbc
00000230: 6087 b63b c1c3 4bbd c34c 9f3b 749c 6abd
00000240: 465e 3dbd 10c0 fe3c 900f 073d a3cb 96bc
00000250: de30 0fbd 1f8c 29bd f542 59bb 0792 67bc
00000260: ca3d 60bd 57b7 bfbd bc0d 6fbc fd73 30bd
00000270: 8531 a23c 8e39 80bc 5ca6 82bc 795f 11bd
00000280: 9d74 783c 9bd0 dabc 6e55 b73c 4ded 3cbd
00000290: 61a2 98bc 5066 a3bb c04f 6f3d 27e1 073d
000002a0: 0b78 383d bc8c 0a3d 2b0f b73c dcd7 cd3a
000002b0: 11e4 ed3c cf87 8cbb 82ad 1b3d 2202 6bbc
000002c0: 07fb 933c 53a0 36bd 9f53 943c 0b2f 8abc
000002d0: 980f 1ebc 9a0a edbc 4150 6f3c a786 f6bc
000002e0: 4baf 1f3c d00b b33d 6f7f bf3c 1e66 923b
000002f0: 5c02 e53c a87f f4bc 3500 c4bb 48ae f83c
00000300: c41e 563d d293 6d3d 3d3e 653d 3fd8 873c
00000310: 4d03 d53c a97e 6c3d 4d86 463b da60 033b
00000320: f390 83bd de55 723c 9981 233d 328b 023d
00000330: f9c3 c6ba 4aa4 afbc e8bd 84bd 5e49 52ba
00000340: 638d 7bbb a1c9 923d b2eb 69bd 5dbe 14bc
00000350: 3f74 34bc b4dc d73c c0f8 4ebc 748a 00bd
00000360: dc18 15bd cbee 46bc 74fb 9dbc 22cb 8fbb
00000370: 5e29 853c b802 653b efb2 713b 96a9 8dbd
00000380: 7a90 af3c deac 843c f4e7 bf3c 3018 28bd
00000390: a0b9 033d 8688 fdbc a175 053d 6324 6bbd
000003a0: c59d 7bbd addc fabb 3d30 76bc 0ca7 033d
000003b0: f297 083d 9c7c 0dbc f684 803b a41c efbc
000003c0: cc02 dfbc 00e0 a23c dbc0 bebb 323e fb3a
000003d0: 9417 0cbd e045 9e3c d220 b7bc cf53 36bd
000003e0: 89c2 68bd 0d8b a3bd a2ac d73c 85f5 a33d
000003f0: 9637 a73c f6ce 453d 8f52 263d e040 9b3d
-0.063614696 0.031144569 0.011618229 -0.03317667 0.042566907 -0.058457684 -0.020320322 0.025318256
-0.016960576 0.009238595 0.011293668 -0.02108223 0.022435924 0.001017076 0.01199872 0.008288396
-0.019080713 -0.0502634 -0.03886986 -0.02955419 0.023649551 0.010002908 0.034599856 -0.027527777
-0.02548342 0.051703773 -0.0065389196 -0.034516923 -0.046368364 -0.011062879 0.06867823 -0.016947584
-0.012420394 -0.031494632 -0.0120390095 0.023500958 0.012783454 -0.053130917 0.01693684 0.044291228
-0.013881317 -0.0028673809 -0.0069335145 -0.0054129744 -0.037056457 -0.07969021 -0.047183726 -0.035450365
0.03788717 0.022893615 -0.068337925 -0.034630436 0.02203758 0.026479626 -0.032193247 -0.010817792
-0.06975888 -0.062777594 -0.053030536 -0.039625864 -0.029718705 -0.0133865485 -0.07686211 0.016139228
0.0510946 -0.049445927 -0.0062723616 0.005927589 0.016342845 0.007899212 -0.011074813 -0.050046623
-0.07814167 0.0033784122 -0.056442197 0.009912485 0.05808099 0.036061663 -0.007694324 -0.027019894
0.06128951 0.075614534 0.0013099283 0.06376676 0.023891177 0.0951844 0.08972104 0.033577465
0.025925154 0.0069286237 0.09869981 0.08996733 0.018847315 0.0025217254 -0.0058751884 0.08437527
0.026753059 0.029967941 0.0057047713 0.0039269067 -0.06241458 -0.011250468 0.00866762 0.031249978
-0.019400204 -0.069287136 -0.040547892 0.025157856 0.050376974 0.017779928 0.005294513 -0.0035415662
-0.006677857 0.0234256 -0.037629496 -0.030875124 -0.0039242962 0.003138959 -0.028039834 0.0047088773
0.036106408 -0.039808735 -0.011349288 -0.007732185 -0.02506945 -0.03514433 0.010601638 -0.022260293
-0.005254186 -0.0539175 0.0197902 -0.037684496 -0.02299028 -0.05357262 -0.030362314 0.018624673
-0.06467242 -0.0012170544 -0.0665011 -0.017024308 0.005570337 -0.049747232 0.0048614456 -0.05727811
-0.046232484 0.031097442 0.032973826 -0.018407648 -0.034958713 -0.041393396 -0.0033151482 -0.014133937
-0.054746427 -0.09361141 -0.014590677 -0.043079365 0.019799003 -0.015652444 -0.015948467 -0.03549144
0.0151645215 -0.026710799 0.022379603 -0.046124745 -0.018632116 -0.004986562 0.058425665 0.033173706
0.045036357 0.03382562 0.0223461 0.001570459 0.029039415 -0.0042886506 0.038007267 -0.01434377
0.018064035 -0.04458649 0.01810628 -0.016868135 -0.0096472725 -0.02893572 0.014606536 -0.030093504
0.009746383 0.087424874 0.023376195 0.0044677397 0.027955227 -0.029846027 -0.00598147 0.030356541
0.052275434 0.0580023 0.05596756 0.016582606 0.02600255 0.05773798 0.0030292452 0.0020046742
-0.06424131 0.01479098 0.039918516 0.03187103 -0.0015164606 -0.021440644 -0.06481534 -0.0008021797
-0.0038383834 0.07167364 -0.057109542 -0.009078589 -0.011014043 0.026350357 -0.012632549 -0.03138204
-0.03640066 -0.012141894 -0.019284941 -0.004388229 0.016255077 0.0034944247 0.0036880334 -0.069171116
0.021431196 0.01619571 0.023426034 -0.041038692 0.032159448 -0.030948889 0.032582883 -0.057407748
-0.061429758 -0.007655701 -0.015026149 0.03214173 0.03334803 -0.008635666 0.0039221 -0.029188462
-0.027223013 0.019882202 -0.00582133 0.0019168316 -0.034202173 0.019320428 -0.022354517 -0.04451352
-0.05682615 -0.07985506 0.026327435 0.080058135 0.020412248 0.048293076 0.040606078 0.07580733

onnx::Conv_52 f4 [12]
00000000: dd72 7dbf 4087 c13f 5135 123f 5e37 71bf
00000010: b47a 6b3c 3b6e a9be 28df a1be e2f8 50bf
00000020: 4efd 73bf 081d 3cbe cf00 c4be 010a 87bf
-0.9900339 1.51194 0.57112604 -0.9422511 0.014372516 -0.33091912 -0.31615567 -0.81629765
-0.9530839 -0.1837045 -0.38281867 -1.0549928

onnx::Conv_54 f4 [24, 12, 5, 5]
00000000: c9bd d13d 43c7 5b3c abcb 8dba d370 06bc
00000010: da7c 15bd 4582 a0bd 4c8b 35bd 67b4 a13a
00000020: 1d0e 283d 5472 ef3d 3c05 d1bc 0b4c c6bc
00000030: ff42 bfbd bb06 72bd ffd6 aa3c 234f f73c
00000040: f00b 0bbc 1e3b c9bc 97c6 55bd f00c 0fbd
00000050: d799 71bb ec5a e23b 213b c0bb 10a7 ddbb
00000060: a45f 00bd 6fdf 9a3d 0539 603d 67af d5bb
00000070: ba55 2c3d bfd4 c4bc adf8 ffbc 27b5 533d
00000080: 6ac5 323d 5093 a73d 0d35 a13d 6b65 363d
00000090: 8f0c 47bd 85bd b8bd a71e 79bd 8851 103d
000000a0: f6e8 1e3d 0865 09bd 6099 ffbd b781 70bd
000000b0: 8c26 a13c 1d11 07bc a1f1 22bd 158d 75bd
000000c0: 1090 403d d329 0b3d 5232 fcbc e4c0 ddbc
000000d0: 81f1 563d cc85 953c f9a2 ce3c df71 893c
000000e0: 7e5f 53bd bb9c 72bd 2dc3 a33b aa63 3a3d
000000f0: 92c8 873c f07d 113c 4363 e4bc af1b 423c
00000100: 9f09 7e3d d7b8 65bd 27a0 5d3d 4b34 963b
00000110: cae9 b4bc 0c48 a4bc 539e 2cbc 0883 b73c
00000120: e0ae 56bd 921e 7abd a62d b8bd cba2 233d
00000130: b58c c7bd 1e8a 03be 8a90 1bbd 3eca 75bc
00000140: b1b9 5dbd e2cf d2bd c96a cabc 21c9 42bd
00000150: d749 fb3b 234c 5fbd 2ad9 21bc ec94 b9bc
00000160: 56d3 1e3d 9fc1 043d bf41 bd3b 585c 4d3c
00000170: f0c4 b0bc e69a 9cbd c77f 72bd fe9e 043e
00000180: 755c 1abc 4285 7d3d 257c 72bd 8e38 db3c
00000190: 64b3 e3bc 3f1b 08bd 5e72 853b e8aa 23bd
000001a0: b796 503c d235 46bd 6243 01bd 65b0 8cbd
000001b0: afde 3ebd 526f af3c df7a 86bd b9e5 763c
000001c0: 2c50 8dbd 78b2 5e3c 17e7 6f3c 73cd 833d
000001d0: 965f 713d d517 01bd ffee 20bc 244b 70bb
000001e0: f919 ae3d 5cd8 29bd a4c2 973b 6d91 4b3d
000001f0: a420 643d c4f2 a13d a572 083d cbc6 c0ba
00000200: 688a 5bbd 951c 70bd b5ab 64bd aa25 88bd
00000210: 45e0 cdbd 55c0 f4bd d104 0fbd 76b3 fc3d
00000220: 2e5f 313e f8b3 e03d 2e4d 413d 444b 74bd
00000230: 26b9 0d3e 78f4 e23d edf2 a63c c788 bfbd
00000240: 6d9a 01be 6bc8 39bd 8ce2 d7bb 9189 cfbd
00000250: fe0d 0bbe 2cec 15be d9f9 cc3b 644b 223d
00000260: fa4b aebd b768 22bd 97b3 78bc 9611 57bc
00000270: 4cd5 4c3b 3f18 8bbd 3c2d 32bd b479 08bd
00000280: b11c babc 3732 b3bd 9a8f 08be 59a5 cf3b
00000290: 588b 11bd fc94 1dbd 9bea d7bd 9144 dbbd
000002a0: 5067 c9bd 5a2b 093d a47c ec3c 9b3b 99ba
000002b0: 1242 82bc 5f1a 83bd 417d ac3b 7f04 3b3d
000002c0: efd9 74bd 6941 c53b f83e 64bd b6a4 35bd
000002d0: fa54 c73c a6b5 89bd be2e ffbc f40d a4bd
000002e0: b9ca bfbd 0c4b edbb 4ef0 883d cffb f3bc
000002f0: e585 d6bc 87e0 77bd 72d4 883d cdd7 803d
00000300: 91eb bfbc dbfe a4bd d371 80bd c4bc 5d3c
00000310: ab86 af3c cb87 32bd 415f b5bd 7b20 85bd
00000320: eca3 7abc 07d2 7cbc bf10 05be 5a7f d8bb
00000330: 500d 3e3c 5fd5 8bbb aed3 a2bd 26de f9bd
00000340: 076a 2f3c ca55 a63d d933 d53d cb8f ecbc
00000350: 942f ebbc 35be 8dbd 91d2 2d3d 3528 f33d
00000360: 287c 863d a28a a3bc 9a58 7ebd 2d67 b0bd
00000370: b7cf 713d d279 893d bc02 123d ba07 ab3c
00000380: 5b53 81bd 598e f93c 81cb 443b 0f5d 48bd
00000390: 86a2 5abd ae2b 87bc 04ee b1bd 3bc0 9abd
000003a0: 322b 123c b038 91bd d9ca cbbd d7fb 803d
000003b0: 14e3 133d b51f 0b3e 271e 0f3e 40a4 9a3d
000003c0: 17a3 8abc ab92 4d3d 7ac2 b33d e77c 9c3d
000003d0: 07c5 6fbc 0a6b 0abe 74b2 0fbc 63c2 83bb
000003e0: 55f9 cabc aaa3 1ebe 3b10 583d c7a5 593d
000003f0: bd2a abbc 1569 05bd 5f57 31bd 7014 8b3d
0.10241277 0.013414207 -0.0010818144 -0.00820561 -0.03649602 -0.07837347 -0.044322297 0.0012337089
0.041029084 0.11691728 -0.025515191 -0.024206182 -0.0933895 -0.05908845 0.020854471 0.030189103
-0.008486733 -0.024564322 -0.052191343 -0.034924448 -0.0036865377 0.0069078114 -0.0058664237 -0.0067643
-0.03134121 0.07562148 0.054741878 -0.0065211537 0.042073943 -0.024027226 -0.031246508 0.051686432
0.0436453 0.081823945 0.07871447 0.044530313 -0.04859596 -0.09020523 -0.060820248 0.035234004
0.038796388 -0.033543617 -0.12480426 -0.058717456 0.0196717 -0.008243826 -0.039781217 -0.059949
0.04701239 0.033975434 -0.030785713 -0.027069516 0.05247641 0.018252276 0.025224196 0.01677793
-0.05160474 -0.0592315 0.004997632 0.045505203 0.016575132 0.0088801235 -0.027879363 0.011847421
0.062020894 -0.05608448 0.05410781 0.0045838705 -0.022084136 -0.020053886 -0.010535794 0.022401348
-0.052412868 -0.06106431 -0.08993082 0.039950173 -0.097436346 -0.12845656 -0.03797964 -0.015001832
-0.054132167 -0.10293557 -0.024709122 -0.047555093 0.0076687145 -0.05451597 -0.009878436 -0.02265402
0.038775764 0.032411214 0.00577566 0.0125342235 -0.021578282 -0.07646732 -0.05920389 0.12951276
-0.009421458 0.061894663 -0.059200425 0.026760366 -0.027795501 -0.03322911 0.0040724715 -0.03995791
0.012731246 -0.04839117 -0.031558402 -0.06869582 -0.046599086 0.021415386 -0.065664046 0.015069419
-0.06900057 0.013592355 0.014642498 0.06435671 0.05892905 -0.03151687 -0.009822606 -0.003666588
0.08501048 -0.041466102 0.0046313573 0.049699236 0.05569519 0.07907632 0.03331246 -0.0014707682
-0.05359879 -0.058621008 -0.055827815 -0.06647809 -0.10052542 -0.11950747 -0.034916703 0.12338917
0.17321464 0.10971826 0.047192745 -0.05964209 0.1384016 0.11081785 0.020379508 -0.0935226
-0.12656565 -0.04535715 -0.006588286 -0.101336606 -0.13579556 -0.14640874 0.00625537 0.03962268
-0.08510585 -0.039650645 -0.015179536 -0.013126751 0.0031255065 -0.06791734 -0.04350017 -0.03331919
-0.02271876 -0.08749812 -0.1333603 0.0063368496 -0.03553328 -0.03847216 -0.10542794 -0.107064374
-0.098341584 0.03348861 0.028868027 -0.0011690737 -0.015900645 -0.06401514 0.005263955 0.045658585
-0.05977815 0.0060197604 -0.055724114 -0.044346534 0.024332512 -0.067241 -0.031150218 -0.08010474
-0.09364838 -0.0072416123 0.066864595 -0.029783158 -0.026186893 -0.06051686 0.06681146 0.06291161
-0.023427757 -0.08056422 -0.0627171 0.013533775 0.02142652 -0.043586534 -0.08856059 -0.06500336
-0.015297871 -0.015430934 -0.1299467 -0.0066069784 0.011599854 -0.004267379 -0.07950531 -0.122005746
0.010706431 0.08121832 0.1041028 -0.02887716 -0.02870921 -0.06921045 0.04243714 0.11872903
0.0656665 -0.019963566 -0.062096216 -0.08613429 0.059035983 0.067126885 0.03564714 0.020877708
-0.06314727 0.030463384 0.0030028524 -0.048916873 -0.05337765 -0.01650032 -0.08687976 -0.07556196
0.008921431 -0.070908904 -0.099507995 0.06298035 0.03610523 0.13586314 0.13976346 0.075508595
-0.01692347 0.0501887 0.08777328 0.07641011 -0.014634377 -0.13517395 -0.008770574 -0.0040209754
-0.024777094 -0.1549212 0.052749854 0.053136613 -0.020894403 -0.032570917 -0.043296214 0.067910075

onnx::Conv_55 f4 [24]
00000000: bdf3 10bf a406 17bf b861 27bf 2617 9e3d
00000010: 1419 b23e aebb 4dbf e434 08bf cb94 2dbf
00000020: ec28 0fbf 643e 68bf b83c fc3b e142 34bf
00000030: 46ec 083f 54a8 cabd 9770 74bf 81fa cfbe
00000040: 02b2 3fbe f6b1 cabe bec7 ac3f 458d 7f3e
00000050: daa5 15bf af38 0ebf a4e5 89be e784 23bf
-0.56621915 -0.5899451 -0.6538348 0.07719259 0.34784758 -0.803645 -0.53205705 -0.67805165
-0.55921817 -0.907202 0.007697668 -0.7041455 0.53485525 -0.09895387 -0.954843 -0.40620807
-0.18720248 -0.39588898 1.3498456 0.24956234 -0.58456194 -0.5555524 -0.26933014 -0.6387467

onnx::Conv_57 f4 [24, 24, 5, 5]
00000000: c6bb 4a3c 397b 77bc 5164 53bc 4c29 7fbb
00000010: f2b9 83b9 25a9 6a3b f152 15bc 8454 6fbb
00000020: 989e 2dbc 5463 59bb 0a58 60bc 3e8b 63bc
00000030: e056 14bd 4973 8cbc 60ba eb3b 0e93 3fbb
00000040: 3b45 2f3a b40e d6bc d785 d0bc a523 f93c
00000050: 6980 6abc f967 e7bc a723 9abc 6593 00bd
00000060: 8fca 753c acab 19bd 2b3b b0bb 387b 053c
00000070: a253 593c 223c 2cbc 92cb 8dbc f555 00bd
00000080: ca44 27bc 0a28 333c 1be6 15bb 65bb ddbc
00000090: ae17 743c 7bfe 54bb 9bb5 003c f22b 98bc
000000a0: f2de 843c aef2 bf3b 825e 81bc 411f e5bc
000000b0: 4c11 843c 2253 9bbc 5bcc e43b 8823 a43b
000000c0: 9654 bdbc d486 c13b 2993 0cbd c31a 39bc
000000d0: 03a6 b2bc d9f2 813b 329a e8bc 3f6a 14bc
000000e0: 4fd3 06bd c2d9 38bb a8b4 d3bc 8e42 333a
000000f0: b13d b33c 5ba9 2f3c 4b8f 92bc c383 d5bc
00000100: a80c 393c 3a1a ba3c 0ad6 4a3c abf6 313c
00000110: dd9d 653c bb5d 2d3c 24aa 753c d49e 1fbc
00000120: d5c9 95bc 29bf 6dbc 36bc 5b3c 07d9 0cbb
00000130: 80f4 c23b 742e fd3c 3d3b 1bbb 08c5 413b
00000140: cc4c be3a a58e d43b 9624 233c c3f1 d93c
00000150: b8ec 75bc 8d82 9cbc 5585 fb3b 90b8 ea3c
00000160: 71ae 16bc 6867 67bc fdec 78bc e72b 383c
00000170: 9a60 ac3c 3637 973c c360 23bc 9d86 993c
00000180: 0774 cc3c bf7a 46bb 9fb8 59bc a3f7 e4bc
00000190: b5fa c13b 88cc fdbb 18e0 c4bc 3ff6 2cbc
000001a0: 998f 7dbb 85dd 5ebc 6952 73bc f23d 80bc
000001b0: 6f93 dabc 742d b6bc b745 c2bb 211c eaba
000001c0: db9f a7bc a920 fbbc ff62 a9b9 901c 9c3c
000001d0: e8fd e2bc 81cf 17bc 7921 57bc 61c1 86bb
000001e0: 7841 493c 5fe4 e537 c454 d2bc b18b dcbc
000001f0: b825 c2ba 3a26 45bc 4661 8bbc a18d c5bb
00000200: 1272 29bc c9a0 db3b e303 943b 870a 75bc
00000210: 1491 ef3c e1e4 9fbb b67a 053c 8796 ffbc
00000220: 67b8 90bc d6fa d0bc 401c 07bb f308 ddbc
00000230: 2ce4 5ebc a25c 93bb b6a2 9fbc 562a 343c
00000240: b56c 99bc 84ba b2bc 35a7 acbc f1ec 233c
00000250: 325f 023b 1750 1cbd 1ed1 31bc 1960 ed3b
00000260: 490c 98bc 8168 47bb 060b a8bb c4cf 8abb
00000270: a085 96bc 2a10 11bc 7ba6 9dbc 1b5a 63bc
00000280: 5913 f2bc 1dbc c3bc 8db7 e6bc 1ddc 263c
00000290: 3813 d93b 5fe2 f7bc 14f3 b6bc a486 c8bb
000002a0: 6bd8 c7bb 4dd3 b1bb 9d42 c93c 4c8a 3e3b
000002b0: 1922 a1bc f9f9 d2bc 6ebc b3bc d95f dbbc
000002c0: 3adc 59bc a536 bb3b 5445 aa3b 12d4 88bc
000002d0: 303c fdbc 44a1 7f3c 1440 55bb 3c2c cf3c
000002e0: caf6 b73b c189 05bd abeb 5e3c dd9d 98bc
000002f0: 7a6f e9bb 4f2d 173b 5aeb 16bd e038 e0bb
00000300: e00c a2bc 7b23 62bc 02cd 98bc 5428 0fbc
00000310: 12e4 5cbc a2ed 97bc b4a0 5cbc d281 e1ba
00000320: 69e4 2cbd 9557 bcbb e677 b63b 3902 58bc
00000330: e294 063d 0f80 b53b 7e30 d3bb 8f5e ddbc
00000340: 6a7d b0bb 55f4 123d 9573 32bd a71e 4d3b
00000350: 8a80 91bc 0f9a 853c ac83 303c f135 13bd
00000360: b85f 06bc 7057 9dbc 6704 f43b 9a61 be3b
00000370: aac5 47bb 9ac8 7fbc c9fe 3abc 843b eebc
00000380: 3eec 903c 29b3 953a fa00 11bb a915 fa3b
00000390: dfc5 123c 0ccc b9bb c793 c2bc 8baa a5bc
000003a0: b538 dfbb c369 2abc f0e1 7e3c 52d5 bb3b
000003b0: 1aed 703b 248c 15bb 3f5e c0bc 83b6 e53c
000003c0: 6579 25bd 8910 27bc eccb 8c3c d340 ddbb
000003d0: 2d9c c9bc 666d 01bd f0b6 e8bc c3ac 8cbc
000003e0: b831 363c ca49 95ba da61 bc3c d61b 343c
000003f0: f022 193d b90a 073d 5965 9dbc eabb 34bc
0.01237387 -0.015105062 -0.012902335 -0.0038934527 -0.00025124807 0.0035806384 -0.009114013 -0.003651888
-0.010596894 -0.0033170776 -0.013692865 -0.013888178 -0.036215663 -0.017144816 0.0071938485 -0.0029231939
0.00066860364 -0.026130058 -0.025454445 0.030412504 -0.014312842 -0.02824782 -0.018815828 -0.031390566
0.015001907 -0.037517235 -0.005378147 0.008147053 0.0132645685 -0.010512384 -0.017308984 -0.031331975
-0.010209272 0.010934839 -0.002287275 -0.027066896 0.014898224 -0.0032500315 0.007855798 -0.018575642
0.01621959 0.005857787 -0.015792135 -0.027969005 0.016121529 -0.01896054 0.006982369 0.0050091185
-0.023111623 0.0059059653 -0.03432003 -0.011297884 -0.021807676 0.0039657173 -0.028393839 -0.009058534
-0.032916363 -0.0028205966 -0.02584298 0.00068382255 0.021880003 0.01072153 -0.017890593 -0.026063805
0.011294521 0.022717584 0.012380132 0.010862033 0.014014688 0.010581429 0.014994178 -0.009742457
-0.018284718 -0.014510908 0.013411572 -0.0021491663 0.005949557 0.03090594 -0.0023686432 0.0029566903
0.0014518737 0.006486731 0.009957453 0.026604539 -0.015010051 -0.01910522 0.0076758065 0.02865246
-0.0091968635 -0.014123775 -0.015193221 0.011240936 0.021042157 0.018458944 -0.0099718 0.018740946
0.02495767 -0.0030285565 -0.013288646 -0.027950114 0.005919779 -0.0077453293 -0.024032637 -0.0105567565
-0.0038690327 -0.013602619 -0.014851191 -0.015654538 -0.02668163 -0.02223847 -0.005928721 -0.0017861166
-0.020461967 -0.030655222 -0.0003230795 0.019056588 -0.027708963 -0.009265781 -0.013130539 -0.004112408
0.012283675 2.740527e-05 -0.025675185 -0.026922079 -0.0014812266 -0.01203304 -0.017014157 -0.0060288464
-0.010342138 0.0067025167 0.004517065 -0.014956123 0.029243983 -0.0048795794 0.008146932 -0.031199707
-0.017666055 -0.025510233 -0.0020616204 -0.026981806 -0.013604205 -0.0044971267 -0.019486766 0.010996422
-0.018728593 -0.021817453 -0.021075824 0.010005222 0.0019893167 -0.038162317 -0.01085308 0.0072441217
-0.018560546 -0.003042728 -0.005128267 -0.0042361934 -0.018374264 -0.0088539515 -0.019244423 -0.013876463
-0.029550241 -0.02389341 -0.028163696 0.010184315 0.0066246055 -0.03025931 -0.022332706 -0.006119566
-0.006098797 -0.0054268003 0.024567897 0.002907413 -0.01966958 -0.025753962 -0.021940436 -0.026779102
-0.013297135 0.0057133012 0.005196253 -0.016702686 -0.030912489 0.015602414 -0.0032539414 0.025289647
0.0056141363 -0.032602075 0.013605992 -0.018629963 -0.0071238847 0.0023067778 -0.036845542 -0.0068427175
-0.01978153 -0.0138024045 -0.018652443 -0.008737642 -0.013482111 -0.01854593 -0.013466049 -0.0017204827
-0.042210016 -0.0057477453 0.005568492 -0.013184124 0.03285683 0.0055389474 -0.0064449897 -0.027022628
-0.0053860443 0.035877544 -0.04356726 0.0031298788 -0.017761488 0.016308812 0.0107735805 -0.035940114
-0.008201532 -0.019206733 0.007446814 0.005809975 -0.0030482807 -0.015611792 -0.011413285 -0.029081114
0.017690774 0.0011421192 -0.0022125826 0.0076319766 0.008958309 -0.0056700762 -0.023752106 -0.020222923
-0.00681218 -0.010401192 0.015556797 0.005732217 0.0036762417 -0.0022819126 -0.02348244 0.02804113
-0.040398974 -0.010196813 0.017187081 -0.0067521124 -0.024610603 -0.03159847 -0.028407544 -0.017172223
0.011120252 -0.0011389789 0.022995878 0.010992965 0.037386835 0.03296921 -0.019213365 -0.01103113

onnx::Conv_58 f4 [24]
00000000: a6f7 6dbe ef1a 083f e43b 9d3e 8d18 f73e
00000010: f89d cc3e f765 95bd 18db 083f cb71 ab3e
00000020: 5177 b73e 6378 323e 101f eb3e 8a1d 123e
00000030: 86cd c63e 42bd d33e 826e 1d3f 3653 ac3e
00000040: 32e2 e53e d0e8 3a3e e4b9 973e 64db d63e
00000050: 3eca 483e 9282 63be d034 bc3e f1e6 0f3f
-0.23239002 0.531661 0.30709755 0.48260918 0.3996427 -0.07294839 0.5345931 0.33485255
0.3583322 0.17428736 0.45922136 0.14269081 0.38828677 0.4135533 0.61496747 0.33657235
0.44899136 0.18252873 0.2963401 0.41964257 0.196084 -0.22217777 0.36759043 0.56211764
