image_recognition/myFirstModel.pth (torch, 210214 bytes, 26 tensors)

conv1.weight f4 [12, 3, 5, 5]
00000000: 869c 4ebd c5c6 e63d 43a1 abbd 5174 02bd
00000010: 8b98 84bd 2050 883d c0f6 423c b6a9 2ebd
00000020: b169 f3bd e7b6 153d db0e 3a3d 0e69 a7bc
00000030: e52f 9abd 5607 0ebe c775 0dbe 12aa 883d
00000040: f21c 073e fd56 a7bd 298e 8e3c 2683 23be
00000050: 75a4 6a3d d594 cb3d 9193 fdbb c809 f83c
00000060: 0a68 1abe de44 80bc a704 47bd 1804 a5bd
00000070: 8b20 5b3c ee01 4c3d f7f0 fd3d 15e0 de3b
00000080: 87ca 613d 7813 e4bd ba05 d43c 9afe 6b3c
00000090: 85bf c03d 0925 723d 07b3 443d 5d9a 84bd
000000a0: 0da0 f13d c709 56bd e626 6a3c 86be af3d
000000b0: ea6b 00be 7157 623d 20a9 e53d 3834 3f3a
000000c0: 59f2 a63d 79f7 83bd 0494 653d 527a 053d
000000d0: e345 51bc 0f8a 87bd f562 a6bd 9d06 e3bc
000000e0: 8464 fb3a a633 aabd c8ca f8bd ab90 733d
000000f0: 7d45 a73d 85a4 7e3d c074 a5bc a3a7 07be
00000100: dd81 babd 2551 303d 62cd fcbd c6ed 6abd
00000110: 7538 c73c e2b8 e2bd 3f93 603b 1d2b 933d
00000120: 1df3 733d 4c7a f3bd d7ef 14be c208 c93d
00000130: f0e0 aa3d be19 f5bd 6b71 7c3b d536 a5bd
00000140: 4a98 903d cb43 2fbc a4bf d0bc 6de3 a73d
00000150: 6b92 d3bd 90e5 e8bd 2e56 26bd 0ee2 0c3d
00000160: 3888 8e3d 74b8 b1bb 80be a9bd 681b 593d
00000170: f000 bebb 3758 85bd 3621 933d 692a 9a3d
00000180: 2ae7 07bb e2e6 8dbd ae15 c7bd 74ae 12be
00000190: a610 b73a 6567 923c b975 46bd a6b9 483d
000001a0: 56a3 a33d 39e8 063d e2b8 e43d 9bdb c0bc
000001b0: 2627 293e 5ef3 4cbc 1b3c 943d 7834 1bbc
000001c0: b9cf b3bd 7b84 183e d810 253e a657 d13d
000001d0: a7be f93c 6f98 e4bd ac74 7f3d 9b31 103e
000001e0: f192 813d 01f6 e2bd 3b3b 15be f694 c2bd
000001f0: 39d3 b63d d926 fd3d 7371 5c3c e0ca f9bb
00000200: 02a2 9abd 3223 393d 7438 94bb e0e3 c6bc
00000210: 45cb fa3d 6ace a6bc 5b5d 683d a005 1e3d
00000220: 79c0 93bd 8615 a5bc 07e6 333e 1de4 c43c
00000230: 11b9 0d3c ea4e 8abb cc59 9dbd d9ed f43d
00000240: bd37 63bd ef37 d93d 0ff8 a8bd 1a4a 00be
00000250: 8095 b738 54a1 87bc b422 d23c 44db 97bd
00000260: bf72 d5bd fc6b 0cbe e04c 433d 5caa 29bd
00000270: bbf8 c2bd 1b6f e9bd 06e5 1d3d 9f08 5dbd
00000280: 3aed 3b3d 987d 9abd 5b91 ae3d cfda c03d
00000290: b6de 0cbd 8afd ff3c f6db cc3d 4e28 d33d
000002a0: e4bc e2bd 2293 a9bd e678 b53d 8178 73bc
000002b0: d49d 02be a1f3 a1bc 4e28 27be ef98 2fbd
000002c0: 79b5 d43c 4579 a6bd 7a6f afbd e46a e5bc
000002d0: 89ec b8bd 998e 583d dbb3 8a3d a38e 473c
000002e0: 03c7 31bd 5c56 2a3d 4941 58bd 02d8 1ebd
000002f0: 4d1b dcba daef 8b3d fb5d 063e 9605 343e
00000300: e5ab d03d 10fb 2bbd a30c 3a3d c3f0 8e3d
00000310: de52 9c3c 1a15 69bd d598 be3d 1b9f 8a3d
00000320: 9029 03be 0f0e c23d d300 bb3c 9c64 abbd
00000330: aebf aabd c0f6 4abd 08cf ee3d fbe1 f53d
00000340: ed62 07bd 3d21 333d 905a a5bd f361 243e
00000350: fdf1 763d 0a97 973d 2e1e 523d 4600 ae3d
00000360: cf0d 2d3e 7537 0f3c 3228 223e 8b8f a1bc
00000370: d653 463d ec2e 883d 41c7 c2bc 6057 84bd
00000380: c396 a53b b618 29be 4dfe 26be 95b8 28be
00000390: 415e 76bd 3cbb c4bd a170 20be d042 c2bd
000003a0: 6a11 ee3c 0b77 d53c 0238 0fbd 1cbf 0f3d
000003b0: 5d0c 3f3d b5fa 0d3c a7e1 f0bc 56f4 0a3d
000003c0: 3349 eebd f6a4 80bc 5a9d c3bd 4a4b 2a3d
000003d0: b2f6 433c a045 1cbd 5eee d1bc 854a ac3c
000003e0: f766 2c3d b431 6abd 40f9 8c3d 5d53 adbd
000003f0: 4b3b 13be 0b09 8f3c ee9f e5bd 97cd 643d
-0.05044224 0.11268381 -0.083803676 -0.03184921 -0.06474408 0.06655908 0.01189965 -0.042642318
-0.118853934 0.036551382 0.045424324 -0.020435836 -0.075286664 -0.13869986 -0.1381446 0.06673063
0.13194636 -0.081708886 0.017401772 -0.15967998 0.057285745 0.09940497 -0.0077385386 0.030278102
-0.1507875 -0.015657838 -0.04858842 -0.080574214 0.013374458 0.049806528 0.12399476 0.006801615
0.055124786 -0.11136526 0.025881637 0.014403963 0.094115295 0.05911735 0.048022296 -0.06474755
0.117981054 -0.05225542 0.014291501 0.08581261 -0.12541166 0.055259172 0.11213899 0.0007293853
0.08151693 -0.06443686 0.05604936 0.032587357 -0.01277301 -0.066181295 -0.08124343 -0.027713114
0.0019179736 -0.083106324 -0.121480525 0.059464138 0.08167551 0.062168617 -0.020197272 -0.13247542
-0.09106801 0.043046135 -0.12343861 -0.057355665 0.024318913 -0.1107042 0.0034267453 0.071859576
0.059558023 -0.11888561 -0.14544617 0.098161235 0.08343685 -0.119678006 0.003851975 -0.08067099
0.07060297 -0.010697315 -0.025482006 0.08197675 -0.103306614 -0.113719106 -0.04060953 0.03439527
0.069595754 -0.0054236 -0.08288288 0.053004652 -0.0057984516 -0.06510966 0.07184069 0.0752762
-0.002073715 -0.06928803 -0.09720932 -0.14324361 0.0013966754 0.017871568 -0.048452113 0.049005173
0.07990138 0.03293631 0.11168076 -0.023542216 0.1651884 -0.012509195 0.07238027 -0.009472959
-0.08779854 0.14894287 0.16119707 0.10221796 0.030486418 -0.11161887 0.062367126 0.14081423
0.06326855 -0.11082078 -0.14573376 -0.09501068 0.08927006 0.12360925 0.013454783 -0.0076230615
-0.07550432 0.04519958 -0.0045233313 -0.024278581 0.12245802 -0.020362098 0.056729656 0.038579583
-0.072144456 -0.020151865 0.17568217 0.024034554 0.00865008 -0.004220833 -0.07683143 0.11959428
-0.055473078 0.106063716 -0.082504384 -0.12528268 8.7539665e-05 -0.01655642 0.025651313 -0.074148685
-0.10422277 -0.13713068 0.047680736 -0.041422233 -0.09520098 -0.11398145 0.038548492 -0.0539633
0.045880534 -0.07543486 0.08523818 0.094167344 -0.03439208 0.031248827 0.10002892 0.10310422
-0.11071184 -0.082800165 0.0886095 -0.014860273 -0.12755519 -0.019769492 -0.16323969 -0.04287046
0.02596544 -0.08128599 -0.08566184 -0.028005071 -0.090294905 0.052870367 0.06772586 0.012180003
-0.043402683 0.041586265 -0.052796636 -0.03878022 -0.0016792804 0.068328574 0.13121788 0.17580256
0.10189036 -0.04198748 0.045422208 0.069795154 0.019082483 -0.05690489 0.09306494 0.06768628
-0.12808824 0.09475338 0.022827541 -0.08368799 -0.08337341 -0.049551725 0.11660582 0.12005993
-0.033053327 0.04373287 -0.08073914 0.1605299 0.06028937 0.07401855 0.051298313 0.08496146
0.16899799 0.008741249 0.15835646 -0.019721767 0.048419796 0.06649575 -0.023776652 -0.06461978
0.0050533726 -0.16513333 -0.16307946 -0.16476662 -0.06014848 -0.096060246 -0.15667965 -0.094854
0.029061038 0.02605774 -0.034965523 0.035094365 0.04664265 0.00866573 -0.029404474 0.033924423
-0.116350554 -0.01570366 -0.09551497 0.041575707 0.011960672 -0.038152337 -0.025626358 0.021031627
0.042090382 -0.057176307 0.06883478 -0.08463166 -0.14378087 0.017460367 -0.11212145 0.05586013

conv1.bias f4 [12]
00000000: 3cb1 61bd 06a8 91bd 5f35 b1bd b851 bfbc
00000010: 3405 abbd 04db 37bd 2b8b b23a 1d0f a3bc
00000020: a47c 10bd 12f4 c0bd b3d2 18bd 1d4e 1cbd
-0.055100664 -0.07112126 -0.08652758 -0.023354396 -0.08350602 -0.044886604 0.0013621798 -0.019904668
-0.035275117 -0.09421553 -0.037310313 -0.038160432

bn1.weight f4 [12]
00000000: b764 6f3f 9ce5 6f3f 7d3e 6f3f 99a1 703f
00000010: a1bc 6c3f 04b2 693f bc44 833f 3647 743f
00000020: 87d3 703f ba04 6a3f f1ae 7a3f 4c29 813f
0.93513054 0.9370973 0.93454725 0.9399658 0.92475325 0.91287255 1.0255351 0.9542116
0.94072765 0.9141346 0.9792319 1.0090728

bn1.bias f4 [12]
00000000: 3991 0bbd 6dba 7cbd c31b 95bd 6ac2 f4bc
00000010: 0ea6 bcbd 70ad 6ebd bc97 883c 19c8 41bd
00000020: 2982 25bd b3c7 d3bd 59fa ecbc 076c 54bd
-0.034074042 -0.061701227 -0.07280686 -0.02987786 -0.0921136 -0.05827087 0.016673915 -0.04730997
-0.040407334 -0.10340824 -0.028927969 -0.051860835

bn1.running_mean f4 [12]
00000000: c846 8abd ca7d 883d 33b0 80bc 49a3 71bd
00000010: c3aa 25bd 1b84 89bc 60e0 25bd 4ebe a8bd
00000020: 1f0b 8a3d 1af9 3cbc b693 c53c 8893 7cbd
-0.06751782 0.06664617 -0.015709018 -0.05899361 -0.040446054 -0.016786626 -0.040497184 -0.08239423
0.067404024 -0.011534 0.024118286 -0.061664134

bn1.running_var f4 [12]
00000000: e985 653e 6bd6 cd3c 98cc 3b3e 09e3 203e
00000010: 7a38 2a3e a8ca d63d 710b 053e 49c6 863d
00000020: cbf4 2b3e e7be 0d3e 7a86 ca3d ae06 003e
0.22414364 0.025126657 0.18339765 0.15711607 0.16623107 0.10487872 0.12992646 0.06580789
0.167926 0.13842355 0.098889306 0.12502548

conv2.weight f4 [12, 12, 5, 5]
00000000: bd45 9fbd 1ff4 1b3d 7bb5 683c 1221 26bd
00000010: 6126 553d 5c5c 92bd 1d81 cbbc c88e fd3c
00000020: 6bdb a9bc b40b 393c 4435 623c 7c22 d3bc
00000030: 14b1 e03c 2af9 a23a 7b54 703c 7803 263c
00000040: 0317 bfbc 7eb0 7bbd 26a3 42bd 6cfd 13bd
00000050: 91d8 ec3c c95a 483c 7141 2d3d c5d7 09bd
00000060: 3b36 ffbc 7373 813d e1f8 02bc 22d7 2cbd
00000070: 752f 68bd e095 5dbc 34f3 ab3d 1cba a9bc
00000080: a7c6 78bc deb4 1dbd 1223 71bc 9b5b eb3c
00000090: 2306 803c 2d06 85bd 909e a93c c8c8 5d3d
000000a0: d504 8bbc fbba 65bb 33e0 0abc ffd6 d8bb
000000b0: 8e8e 39bd 5085 c7bd ab44 6cbd b683 31bd
000000c0: 71b7 3d3d 8146 e53c 1519 abbd a568 2dbd
000000d0: cfb3 dc3c 2698 043d 6b34 21bd 2cad 58bc
000000e0: d7a7 aebd 322d 9dbd d6c5 84bd 446c 46bd
000000f0: 50d0 14bd 5910 86bc a670 c0bd a6a1 a13c
00000100: 01da 7f3d 9398 77bd 2944 fbbb 7574 ed3b
00000110: aeab a33c e537 1e3c 12d3 5dbc 9b9a 7abd
00000120: c7a4 c3bd 3556 873b 8950 8dbd 228b 463c
00000130: eb6a 913d 5493 343d 511d 1abc b74c 07bd
00000140: 6a73 993d 0451 bd3d 2be6 d13a 34a7 9f3d
00000150: 0c44 ef3c 4a50 ee3d 8ea2 e03d d822 283d
00000160: 5fd1 013d 1fc7 0a3c 7c1d f73d 6b40 e13d
00000170: a0c0 bc3c 7709 4a3b 145b ebbb 3140 d33d
00000180: a9f6 053d cf0f 163d 6c87 e43b 1d4f 9d3b
00000190: 8644 9cbd c157 61bc fa9b 2d3c 3f7b 1c3d
000001a0: 1e4a c2bc 7b79 adbd 360a 4bbd 8df3 fb3c
000001b0: 1542 7c3d 1010 b23c 2718 d43b 61df 8dbb
000001c0: 4bc1 05bc 679a ea3c 216d 3cbd b99a 1abd
000001d0: 5834 9dbb 247d 7b3b 2c68 0cbd 5ba2 bc3b
000001e0: b0cc 343d b156 47bd 7652 63bc 74df 1abc
000001f0: e410 fbbc 67fb 2fbd d258 543c ccee debc
00000200: 987a d2bb 56fe 86bd fd31 c63c a3b3 3cbd
00000210: 553e e6bc 4921 86bd 5a09 18bd d185 ba3c
00000220: afeb a1bd 6c04 c3ba c77f a6bd d07e aabc
00000230: c724 df3b d11a 79bd f9be c23b 5068 8fbd
00000240: 4681 67bd b6b7 1b3d 0b1d 253d 6959 b8bc
00000250: 760d 2fbd 1046 4fbd 6ccd 84bb 7f8c 8dbc
00000260: a211 89bd 1560 eabd 7c1f 92bc 4db7 57bd
00000270: 8f48 c63c a3c1 9cbc 94b8 9fbc 5db8 31bd
00000280: b4de 973c 7dc0 05bd af20 e03c 2af7 66bd
00000290: e698 babc 0fc2 c7bb d647 923d 451d 263d
000002a0: f683 613d f460 293d caca df3c 52a5 fb3a
000002b0: 8869 113d dccc abbb 6551 3e3d 77a6 8fbc
000002c0: 75e8 b43c 4743 5fbd c354 b53c 6aee a8bc
000002d0: 3b3b 41bc 9be4 10bd 2548 923c c4b0 16bd
000002e0: 6d37 433c d5e2 da3d bd1b ea3c 73f9 b23b
000002f0: b7fb 0b3d 8773 15bd 049d efbb f401 183d
00000300: dbe1 823d 7b38 913d 5120 8c3d 6112 a63c
00000310: 9634 023d 118f 903d e0b2 723b 919c 203b
00000320: 5ed7 a0bd 0521 943c 6be3 473d 5e97 1f3d
00000330: 45fe f2ba 62b9 d6bc 4a47 a2bd f889 80ba
00000340: 4ac3 99bb 1a73 b33d 45fc 8ebd 42d7 35bc
00000350: 779b 5cbc 70f2 033d 7e06 7dbc 8924 1dbd
00000360: e445 36bd 9e32 73bc 9c22 c1bc 0dca afbb
00000370: a9ca a23c effb 8b3b 6dbd 933b 1d2f adbd
00000380: 2aa1 d63c 7632 a23c 839b ea3c 5e7f 4dbd
00000390: 1809 213d 48f9 1abd e527 233d 67bb 8fbd
000003a0: 4ecd 99bd 4657 19bc f27b 96bc 61f2 203d
000003b0: bcfc 263d 21f8 2cbc d21d 9d3b 9828 12bd
000003c0: 1851 08bd dd1d c73c c132 e9bb e292 193b
000003d0: a843 2bbd 977d c13c 5ee0 dfbc bde5 5ebd
000003e0: a146 8ebd f9ee c7bd 0ed5 033d 2271 c83d
000003f0: ca6c cc3c bdd2 713d cd54 4b3d 97cc bd3d
-0.077769734 0.03807461 0.014203425 -0.040558882 0.052038554 -0.071465224 -0.02484184 0.030951872
-0.02073451 0.011294294 0.013806645 -0.02577328 0.027428187 0.0012433876 0.014668579 0.010132663
-0.023326403 -0.061447613 -0.04751887 -0.036130354 0.02891186 0.012228676 0.042298738 -0.03365304
-0.031153789 0.06320848 -0.007993908 -0.042197354 -0.056685884 -0.0135245025 0.08395997 -0.020718627
-0.015184081 -0.038502567 -0.014717834 0.028730204 0.015627926 -0.064953186 0.020705491 0.054146558
-0.016970078 -0.0035054076 -0.008476305 -0.0066174264 -0.045301966 -0.09742224 -0.057682674 -0.0433385
0.04631752 0.02798772 -0.083543934 -0.042336125 0.026941208 0.032371663 -0.03935663 -0.013224881
-0.08528107 -0.07674636 -0.06483047 -0.048443094 -0.036331475 -0.016365217 -0.09396486 0.0197304
0.062463764 -0.06044824 -0.0076680374 0.007246549 0.019979324 0.009656881 -0.013539093 -0.0611826
-0.09552913 0.0041301497 -0.069001265 0.012118133 0.07100471 0.044085816 -0.009406404 -0.033032145
0.074927166 0.09243968 0.001601403 0.07795563 0.029207252 0.11636408 0.10968505 0.041048855
0.031693812 0.008470326 0.120661706 0.10998615 0.02304107 0.0030828395 -0.007182488 0.10314978
0.032705937 0.03663617 0.0069741514 0.004800691 -0.07630257 -0.013753832 0.01059627 0.038203474
-0.023716982 -0.08470436 -0.049570285 0.030755782 0.06158646 0.021736175 0.0064726057 -0.0043296074
-0.00816376 0.028638078 -0.04600251 -0.03774521 -0.0047974996 0.003837415 -0.034279034 0.005756659
0.044140518 -0.04866666 -0.013874641 -0.009452689 -0.030647703 -0.042964365 0.01296063 -0.027213477
-0.0064233057 -0.065914795 0.024193758 -0.046069752 -0.028105894 -0.065493174 -0.037118293 0.022768887
-0.07906281 -0.0014878637 -0.0812984 -0.020812422 0.006809804 -0.06081659 0.005943176 -0.07002318
-0.05651977 0.038016997 0.0403109 -0.022503572 -0.042737447 -0.050603926 -0.0040528085 -0.017278908
-0.06692816 -0.114441074 -0.017837279 -0.052665044 0.02420452 -0.019135302 -0.019497193 -0.043388713
0.01853881 -0.032654274 0.027359335 -0.056388058 -0.022777986 -0.0060961316 0.07142608 0.040555257
0.05505749 0.041352227 0.027318377 0.001919905 0.035501033 -0.005242927 0.046464343 -0.017535431
0.0220835 -0.05450752 0.022135144 -0.020621497 -0.011793907 -0.035374265 0.017856667 -0.03678967
0.01191507 0.10687796 0.02857768 0.0054618656 0.0341756 -0.03648713 -0.007312419 0.037111238
0.06390735 0.07090851 0.06842101 0.020272436 0.03178843 0.07058538 0.0037032887 0.0024507383
-0.07853578 0.018082151 0.048800867 0.038962714 -0.0018538913 -0.026211444 -0.079237536 -0.0009806743
-0.0046924697 0.08762188 -0.0698171 -0.011098685 -0.0134648 0.03221363 -0.015443442 -0.03836492
-0.044500247 -0.014843611 -0.023576073 -0.0053646625 0.019872027 0.004271976 0.0045086653 -0.08456252
0.026199896 0.019799452 0.028638607 -0.050170295 0.039315313 -0.03783539 0.03983297 -0.07018166
-0.07509862 -0.0093591865 -0.018369649 0.03929365 0.04076837 -0.010557205 0.0047948146 -0.035683244
-0.033280462 0.024306232 -0.007116646 0.0023433496 -0.04181257 0.023619456 -0.027328666 -0.054418314
-0.06947065 -0.09762377 0.032185607 0.09787203 0.024954218 0.059038866 0.04964142 0.09267538

conv2.bias f4 [12]
00000000: fc23 d9bc dc56 1e3d c13c 383d 02a1 77bd
00000010: 4c55 2cbd ad45 693d 9334 27bd 7f10 78bd
00000020: 9623 8fbc 8856 903d b24d 833d a01b 6abd
-0.026506416 0.038657054 0.044979814 -0.060456283 -0.042073533 0.056951214 -0.040821623 -0.060562607
-0.017473023 0.070477545 0.064113036 -0.05715525

bn2.weight f4 [12]
00000000: 606b 6d3f 5864 723f 9536 6b3f d2b3 6d3f
00000010: 3c71 663f 9acc 703f 8180 6c3f 3488 6c3f
00000020: 8dea 783f 9ac8 813f 72c2 763f 043f 793f
0.92741966 0.9468436 0.9188016 0.9285251 0.9001653 0.940622 0.9238358 0.9239533
0.97232896 1.0139344 0.9639045 0.9736178

bn2.bias f4 [12]
00000000: 88e3 32bc 3a18 8bbc 1daa fdba 94aa 85bd
00000010: 4a29 0ebd d467 afbb a90b 1abd b46a 8dbd
00000020: 904c b9bc 17d3 273c 15fa 6b3c d782 80bd
-0.0109185055 -0.016979326 -0.0019353066 -0.06526676 -0.034707345 -0.0053529534 -0.037608776 -0.06905118
-0.022619516 0.010243199 0.014402886 -0.06274956

bn2.running_mean f4 [12]
00000000: f6d6 a43f e7cf 74bf dc97 81be d2f2 543f
00000010: 51c9 e33d 7c7c e73e 2505 f03e 0d50 2a3f
00000020: 26e3 8d3f 9fa3 0a3f da48 fb3e 3832 843f
1.2878101 -0.95629734 -0.25311172 0.83183014 0.111223824 0.45212162 0.46878925 0.665284
1.1084945 0.54155916 0.4907902 1.0327826

bn2.running_var f4 [12]
00000000: 694f 983f 7045 bd3e 18e6 df3e e416 293f
00000010: b2fb db3e b6dc 013f aa32 3b3f e86c 033f
00000020: 7304 893f 3033 7f3f 2b0d 1e3f 4d82 633f
1.1899234 0.3696704 0.43730235 0.66050553 0.42965466 0.50727403 0.7312418 0.5133805
1.0704483 0.9968748 0.6173884 0.888707

conv4.weight f4 [24, 12, 5, 5]
00000000: 491d ca3d 54c9 533c aea3 88ba 4e8d 01bc
00000010: 420d 10bd 14ac 9abd 4af1 2ebd 14d3 9b3a
00000020: adf1 213d 4dbd e63d 726b c9bc 1416 bfbc
00000030: 864e b8bd b039 69bd a2a0 a43c ea50 ee3c
00000040: 8afd 05bc d7e9 c1bc 8900 4ebd 45d9 09bd
00000050: c2d0 68bb c31f da3b a23d b9bb ae97 d5bb
00000060: 3369 f7bc b63d 953d b611 583d 30ea cdbb
00000070: 7211 263d 6eac bdbc d1a9 f6bc 5902 4c3d
00000080: 3845 2c3d 577b a13d 5c58 9b3d 7ac3 2f3d
00000090: 98cf 3fbd c205 b2bd 930f 70bd 0f12 0b3d
000000a0: a821 193d 0366 04bd fb4d f6bd d1c2 67bd
000000b0: 624a 9b3c c427 02bc c504 1dbd 3a9f 6cbd
000000c0: 7b8f 393d 571a 063d 9a06 f3bc 92b0 d5bc
000000d0: 9420 4f3d e115 903c 601f c73c 6372 843c
000000e0: ceaf 4bbd 3cca 69bd b3ce 9d3b 8d9c 333d
000000f0: 8dd8 823c 8a33 0c3c 2e15 dcbc b70c 3b3c
00000100: c4cc 743d 575e 5dbd 0591 553d 07be 903b
00000110: a755 aebc bd4e 9ebc 6857 26bc b4d6 b03c
00000120: 5fe0 4ebd 3006 71bd 1e7b b1bd 7eaf 1d3d
00000130: 154b c0bd 3583 fdbd 60e8 15bd 2ada 6cbc
00000140: a2a9 55bd 6a25 cbbd 780e c3bc dab3 3bbd
00000150: 9326 f23b 712d 57bd 81f6 1bbc 53d5 b2bc
00000160: d10c 193d 90db ff3c f05f b63b a0e4 453c
00000170: 6157 aabc 0ce9 96bd 55ae 69bd d398 ff3d
00000180: 7fbf 14bc 374d 743d d5aa 69bd cf3f d33c
00000190: b56b dbbc 3828 03bd 1a98 803b 50b7 1dbd
000001a0: f200 493c aa00 3fbd 1f20 f9bc b592 87bd
000001b0: dced 37bd 2f0e a93c fc96 81bd 56eb 6d3c
000001c0: ad2c 88bd 5d99 563c d12d 673c fa04 7e3d
000001d0: 9f98 683d 2fcc f8bc da14 1bbc 3a8e 67bb
000001e0: 3fc5 a73d 42ab 23bd e43d 923b 652a 443d
000001f0: fcd4 5b3d 2d0f 9c3d 717c 033d 38c4 b9ba
00000200: af8e 53bd 5d61 67bd fe5a 5cbd 4232 83bd
00000210: c163 c6bd ecd9 ebbd 71d1 09bd 0c83 f33d
00000220: 03ec 2a3e 3188 d83d b845 3a3d 1d69 6bbd
00000230: d691 083e bab3 da3d c9e0 a03c c591 b8bd
00000240: e1c7 f9bd f306 33bd db08 d0bb 95fd c7bd
00000250: 85ff 05be 8878 10be b685 c53b 9464 1c3d
00000260: 6ff5 a7bd d680 1cbd 68a8 6fbc 7e3f 4fbc
00000270: 7d62 453b 6709 86bd 93b2 2bbd 3e83 03bd
00000280: 2958 b3bc 10ae acbd 5898 03be 5b18 c83b
00000290: 7640 0cbd 0ada 17bd 9f10 d0bd 624b d3bd
000002a0: 6e14 c2bd 6e2e 043d 2ae3 e33c 26a9 93ba
000002b0: f90a 7bbc d9ab 7cbd 8937 a63b 8937 343d
000002c0: 98f2 6bbd 2415 be3b 35f2 5bbd c709 2fbd
000002d0: 6115 c03c b3b3 84bd 3ae7 f5bc c216 9ebd
000002e0: 51d1 b8bd 11aa e4bb 88f5 833d 8b1c ebbc
000002f0: e2b8 cebc 05dd 6ebd afda 833d c950 783d
00000300: f7f0 b8bc e6fe 9ebd 3e8c 77bd 98ac 553c
00000310: ae24 a93c d709 2cbd d9c6 aebd 3149 80bd
00000320: b186 71bc 80a0 73bc 073a 00be f59f d0bb
00000330: 1a24 373c a6bf 86bb e9e7 9cbd 1cc8 f0bd
00000340: 1509 293c 5d49 a03d 2173 cd3d 9ff5 e3bc
00000350: 37a2 e2bc b696 88bd 7080 273d a350 ea3d
00000360: 3998 813d 3698 9dbc df18 75bd 06fd a9bd
00000370: ac04 693d 0c7a 843d 82b3 0c3d 98cf a43c
00000380: e73e 79bd 367b f03c 86a3 3d3b dc13 41bd
00000390: 3caf 52bd 5d41 82bc a775 abbd a41f 95bd
000003a0: 80da 0c3c cff0 8bbd ba61 c4bd 3d96 783d
000003b0: 6382 0e3d 9710 063e dbe9 093e ae04 953d
000003c0: 8198 85bc f918 463d 1439 ad3d 25cc 963d
000003d0: fe0c 67bc 7e62 05be c478 0abc a8ef 7dbb
000003e0: d597 c3bc e1de 18be e134 503d aebb 513d
000003f0: 55f1 a4bc 278f 00bd 7ce4 2abd bb05 863d
0.09868867 0.012926418 -0.0010424757 -0.007907225 -0.035168894 -0.075523525 -0.04271058 0.0011888468
0.03953712 0.11266575 -0.024587367 -0.023325957 -0.08999352 -0.05693978 0.020096127 0.029091317
-0.008178124 -0.023671074 -0.05029348 -0.03365447 -0.003552482 0.0066566183 -0.005653099 -0.006518326
-0.03020153 0.07287161 0.052751265 -0.006284021 0.04054398 -0.02315351 -0.030110272 0.049806926
0.0420582 0.07884853 0.075852126 0.04291103 -0.046828836 -0.086925045 -0.058608603 0.03395277
0.037385613 -0.03232385 -0.12026592 -0.056582276 0.018956367 -0.007944051 -0.038334627 -0.057769038
0.04530285 0.032739963 -0.029666234 -0.026085172 0.05056818 0.017588558 0.024306953 0.016167825
-0.049728207 -0.05707763 0.0048159 0.04385047 0.0159724 0.00855721 -0.026865568 0.011416606
0.059765592 -0.054045048 0.052140255 0.0044171843 -0.021281077 -0.019324655 -0.010152675 0.021586753
-0.050506946 -0.05884379 -0.08666061 0.03849744 -0.09389321 -0.123785414 -0.036598563 -0.014456311
-0.052163728 -0.099192455 -0.02381061 -0.045825817 0.0073898523 -0.05253357 -0.00951922 -0.021830237
0.03736574 0.031232625 0.005565636 0.012078434 -0.020793619 -0.07368669 -0.05705102 0.12480321
-0.009078859 0.05964395 -0.057047684 0.025787262 -0.026784757 -0.032020777 0.003924382 -0.0385049
0.012268292 -0.046631493 -0.030410824 -0.06619779 -0.044904575 0.020636646 -0.06327626 0.0145214405
-0.06649146 0.013098088 0.014110045 0.062016465 0.056786176 -0.0303708 -0.009465421 -0.0035332576
0.081919186 -0.039958246 0.0044629443 0.047891993 0.053669915 0.07620082 0.0321011 -0.0014172858
-0.051649746 -0.056489337 -0.053797714 -0.0640607 -0.09686995 -0.11516175 -0.033647005 0.118902296
0.16691594 0.105728514 0.045476645 -0.05747329 0.13336882 0.10678811 0.019638436 -0.09012178
-0.12196327 -0.0437078 -0.006348712 -0.09765164 -0.13085754 -0.14108479 0.0060279025 0.038181856
-0.082011096 -0.038208805 -0.0146275535 -0.012649415 0.0030118518 -0.06544762 -0.04191835 -0.032107584
-0.021892624 -0.08431637 -0.12851083 0.006106419 -0.034241162 -0.037073173 -0.1015942 -0.103171125
-0.09476553 0.03227084 0.027818281 -0.001126562 -0.01532244 -0.061687324 0.0050725383 0.043998275
-0.057604402 0.00580086 -0.053697783 -0.042733934 0.023447694 -0.064795874 -0.030017484 -0.077191845
-0.09024299 -0.0069782813 0.06443316 -0.028700134 -0.025234643 -0.05831625 0.06438195 0.060623918
-0.022575838 -0.07763462 -0.06043648 0.013041638 0.020647373 -0.04200157 -0.08534021 -0.0626396
-0.014741586 -0.014869809 -0.12522136 -0.0063667246 0.011178041 -0.0041122017 -0.07661421 -0.11756918
0.010317107 0.07826493 0.10031725 -0.027827082 -0.02766524 -0.06669371 0.040893972 0.114411615
0.06327862 -0.019237619 -0.059838172 -0.083002135 0.05688922 0.06468591 0.03435088 0.02011852
-0.060851004 0.029355627 0.002893658 -0.04713808 -0.051436648 -0.015900308 -0.0837205 -0.072814256
0.008597016 -0.0683304 -0.09588952 0.060690153 0.034792315 0.13092266 0.13468115 0.07276283
-0.016308071 0.04836366 0.084581524 0.07363156 -0.014102219 -0.13025853 -0.008451644 -0.0038747583
-0.02387611 -0.14928772 0.05083168 0.051204376 -0.020134607 -0.03138652 -0.041721806 0.06544062

conv4.bias f4 [24]
00000000: ddda cc3c 084e 893b 941c 893a 4bcf fd3d
00000010: 8243 383c 08ab c4bc 9a8e d93c 3f0f cfbc
00000020: 0365 f63c 1a2e a7bd ce63 833d 5862 16bd
00000030: 6b48 ef3c 1187 863d b6ad febc 8f80 dabb
00000040: b316 4f3d 757a 563c 15c8 80bd 68f8 cd3c
00000050: 3663 91bb 1b41 53bd f49a b3bc f2b1 a8bc
0.025006706 0.0041902103 0.0010460787 0.123930536 0.011246564 -0.024007335 0.026557256 -0.025275825
0.030077463 -0.0816309 0.064155206 -0.03671488 0.029209336 0.065687306 -0.031088691 -0.0066681574
0.050558757 0.0130907195 -0.062881626 0.025142863 -0.0044368757 -0.05157576 -0.021924473 -0.020592663

bn4.weight f4 [24]
00000000: 1553 703f 8445 693f 154a 663f e95c 803f
00000010: f1a7 723f b4ae 693f 955b 703f 648b 683f
00000020: e5f4 703f 1d4d 793f 87ac 833f 4a9b 7d3f
00000030: 7c71 6c3f 8d4d 6e3f 38f2 773f 3110 783f
00000040: 904e 793f d10a 613f 2dde 793f 8fd4 723f
00000050: 7c4a 753f b869 773f 6328 723f c07c 713f
0.93876773 0.911217 0.8995679 1.0028354 0.9478751 0.912822 0.93889743 0.90837693
0.9412368 0.9738329 1.0287026 0.9906508 0.92360663 0.93087083 0.9685397 0.96899706
0.973855 0.8790713 0.9760464 0.9485559 0.9581678 0.9664569 0.94592875 0.9433098

bn4.bias f4 [24]
00000000: b430 d83a 9312 9cbc 9cfb 49bc 348f 0f3e
00000010: b0d3 f3bb 933a 50bd 3444 54bb c6b8 bebc
00000020: ad1f 313c a251 aebc b36a 0a3c 3d88 1bbb
00000030: defd 39bc 2e34 d93c d79b 83bc f9d8 69bc
00000040: e3fd 9a3b 13c9 3dbd 6e17 81bd ceab e63c
00000050: 8978 0ebd 69e5 41bd 0c27 73bc 9bce 3bbd
0.0016494007 -0.019051826 -0.012328055 0.14019471 -0.0074410066 -0.05083711 -0.0032389285 -0.023281466
0.010810775 -0.02127916 0.008448291 -0.0023732327 -0.011352031 0.026514139 -0.016065521 -0.014272922
0.0047299727 -0.046334337 -0.06303297 0.028158095 -0.03478292 -0.047337923 -0.0148408525 -0.04585133

bn4.running_mean f4 [24]
00000000: 9716 543f 87d8 493f 2ccd 4c3f c1b0 c93e
00000010: 7bd9 73be baf6 823f 898b 303f 3e01 913f
00000020: dd0e 843f 4ca5 953f fda3 493e 442c 833f
00000030: f4f2 a3be a436 c03e 57af 8f3f a0fe 533f
00000040: 2ca6 d53e 495c 143f c80f 68bf f573 cf3d
00000050: f9b9 483f bd06 3e3f 0905 073f 44e2 343f
0.8284697 0.7884602 0.8000057 0.39392665 -0.23813431 1.0231545 0.68962914 1.1328504
1.0317036 1.169107 0.19691463 1.0247884 -0.32021296 0.37541687 1.1225384 0.828104
0.41728342 0.57953316 -0.9064908 0.10129539 0.7840877 0.7422903 0.5274206 0.70657754

bn4.running_var f4 [24]
00000000: b89a 3a3f 4a2e 893f 6617 393f 778f 783f
00000010: 9030 4f3f 940a a13f ce16 7f3f 159b 0f40
00000020: cd3a f03f 4d71 af3f 9f94 113f 9a78 e93f
00000030: a60c 483f ad8c 5b3f 60d2 923f 52c6 e13f
00000040: 2bc4 5c3f 7d65 963f 2537 ea3e 7e76 f73e
00000050: ab77 9d3f b692 a83f cbd3 ba3f 638f 833f
0.7289233 1.0717251 0.7230133 0.9709391 0.80933475 1.2581353 0.9964417 2.2438405
1.8767945 1.3706452 0.568674 1.823993 0.781443 0.8576153 1.1470451 1.7638648
0.8623683 1.1749722 0.45745197 0.4833259 1.2302145 1.3169773 1.4595884 1.0278133

conv5.weight f4 [24, 24, 5, 5]
00000000: 2f8b ad3c 44d9 d3bc 96f4 b4bc 436c dabb
00000010: 3d85 e1b9 bedf c83b f6a5 7fbc 01df ccbb
00000020: 1f9f 94bc 9616 babb e80a c0bc 29c8 c2bc
00000030: 6af6 7dbd cd74 f0bc a2c9 493c c7fd a3bb
00000040: e808 963a b93c 37bd dc7f 32bd 9444 553d
00000050: e0bc c8bc 8816 46bd 35f2 03bd 6620 5cbd
00000060: e566 d23c 808b 83bd 6fdb 16bc 6a86 643c
00000070: 2609 ba3c b26f 93bc 3bc2 f2bc 37b7 5bbd
00000080: 672f 8fbc 7b5c 993c f550 80bb 89ce 3dbd
00000090: a2f2 d03c b253 b6bb f75a 5c3c 0643 02bd
000000a0: de7a e33c a34f 243c 227c ddbc 0122 44bd
000000b0: cb1a e23c fef5 04bd 0adb 433c 8381 0c3c
000000c0: 0612 22bd 98a9 253c 60ab 70bd f673 9ebc
000000d0: 2ded 18bd 187a de3b aa1c 47bd 9517 7ebc
000000e0: 82d3 66bd 513c 9ebb 5c39 35bd 2e73 993a
000000f0: 046f 193d 9e5e 963c 72ea fabc c9c5 36bd
00000100: e367 9e3c a54e 1f3d aba1 ad3c 1457 983c
00000110: 628e c43c 9967 943c 254b d23c 5aa3 88bc
00000120: c138 00bd 0384 cbbc f418 bc3c fd22 71bb
00000130: 9ee2 263c 65ba 583d 89e1 84bb d7de a53b
00000140: 7fe6 223b f6f3 353c 46a7 8b3c 8390 3a3d
00000150: 2384 d2bc b9f9 05bd 7b4e 573c f1ec 483d
00000160: 73fc 80bc 0c16 c6bc ca15 d5bc 7ea7 9d3c
00000170: ea8e 133d 8771 013d c9da 8bbc c76b 033d
00000180: 0d04 2f3d f5e6 a9bb 995f babc 1700 44bd
00000190: ca0c 263c b641 59bc 6e87 28bd 030f 94bc
000001a0: 8d0d d9bb e3c6 bebc c449 d0bc 1a8e dbbc
000001b0: e81a 3bbd 8af2 1bbd ff4c 26bc 0867 48bb
000001c0: 5b7d 0fbd 4ef8 56bd 8bff 10ba 6ba2 053d
000001d0: 2d4f 42bd e4f3 81bc ee27 b8bc d0b4 e6bb
000001e0: 5947 ac3c bdca 4438 220c 34bd 8fca 3cbd
000001f0: 9c31 26bb 77c3 a8bc af9f eebc fb1b 29bc
00000200: 720c 91bc 7a01 3c3c 5768 fd3b 83c2 d1bc
00000210: d912 4d3d 51df 08bc 8b85 643c c4c9 5abd
00000220: 43c4 f7bc 03e4 32bd 6350 67bb c835 3dbd
00000230: 95cc bebc fe49 fcbb ada6 08bd 9739 9a3c
00000240: 9a55 03bd bafe 18bd 5bcb 13bd c852 8c3c
00000250: 9733 5f3b 87ce 85bd ef36 98bc a332 4b3c
00000260: ec27 02bd 7bb2 aabb 18d9 0fbc 92a6 edbb
00000270: 82d9 00bd 845a 78bc 9ff3 06bd 199e c2bc
00000280: a438 4fbd 7d8d 27bd 837f 45bd ccd5 8e3c
00000290: 03d2 393c 9031 54bd b69b 1cbd 6ba7 2bbc
000002a0: 4812 2bbc ce38 18bc 5448 2c3d 241b a33b
000002b0: dcee 09bd 8e99 34bd 82db 19bd e3c9 3bbd
000002c0: 147e babc 1c42 203c 49c1 113c 6041 eabc
000002d0: 26c6 58bd f5d2 da3c d98b b6bb 0458 313d
000002e0: 077a 1d3c 4c9f 64bd 00d3 be3c 8aa4 02bd
000002f0: 3dd3 47bc 0d69 813b 9730 81bd 3bf0 3fbc
00000300: d6b7 0abd 3394 c1bc e5cc 02bd 5217 75bc
00000310: 3716 bdbc af0d 02bd 8cdc bcbc d009 41bb
00000320: bfff 93bd 7239 21bc 4432 1c3c 52e8 b8bc
00000330: a268 663d 1c5e 1b3c 39c8 34bc 117f 3dbd
00000340: 2414 17bc 6d97 7b3d 02c2 98bd 1c96 af3b
00000350: e71a f9bc 36bb e43c 8019 973c c107 7cbd
00000360: 9e0d 66bc f5af 06bd 21e2 503c 4ef8 223c
00000370: 3a02 abbb a1f4 dabc 4b12 a0bc 76ee 4bbd
00000380: 031d f83c 5925 003b 8340 78bb bf13 563c
00000390: e247 7b3c b80b 1fbc d28f 26bd 39d0 0dbd
000003a0: f214 3fbc 79e0 91bc 2d2f da3c f1c9 203c
000003b0: c33c ce3b f203 80bb b7ab 24bd 7ba3 443d
000003c0: 27a6 8dbd ac02 8fbc 8d0c f13c 9d65 3dbc
000003d0: ff94 2cbd a095 5dbd 4535 47bd 35d7 f0bc
000003e0: 31f6 9b3c 4b96 ffba 3d42 213d 2d2d 9a3c
000003f0: 7416 833d 6232 673d ddbb 06bd 35b6 9abc
0.021184532 -0.025860436 -0.022089284 -0.006665738 -0.00043014614 0.006130188 -0.015603533 -0.00625217
-0.018142281 -0.005678962 -0.0234427 -0.023777084 -0.062002577 -0.02935257 0.012316139 -0.005004618
0.0011446746 -0.044735644 -0.043578967 0.052067354 -0.024504125 -0.04836133 -0.03221341 -0.053741835
0.02568383 -0.06423092 -0.0092075905 0.013948062 0.02270944 -0.017997596 -0.029633632 -0.053641524
-0.017478658 0.018720856 -0.003915901 -0.046339545 0.025506321 -0.0055641765 0.013449422 -0.0318022
0.027768549 0.0100287525 -0.02703673 -0.04788399 0.027600667 -0.03246116 0.011954078 0.0085758
-0.03956797 0.010111235 -0.058757186 -0.019342404 -0.037335563 0.006789457 -0.04861132 -0.015508552
-0.056354053 -0.0048289676 -0.044244155 0.00117073 0.03745939 0.018355664 -0.03062937 -0.044622216
0.019336646 0.03889336 0.021195253 0.01859621 0.023993675 0.018115805 0.025670597 -0.016679455
-0.031304125 -0.024843222 0.022961117 -0.0036794536 0.010185866 0.052912135 -0.004055206 0.005061965
0.0024856625 0.011105528 0.017047536 0.045547973 -0.025697773 -0.032708857 0.01314127 0.04905409
-0.015745377 -0.024180435 -0.026011366 0.019244906 0.036024965 0.03160241 -0.017072098 0.032085206
0.042728473 -0.005185003 -0.022750663 -0.04785165 0.010134885 -0.013260296 -0.04114478 -0.018073564
-0.00662393 -0.023288196 -0.0254258 -0.026801158 -0.045679957 -0.0380731 -0.010150193 -0.003057899
-0.035031658 -0.052482896 -0.0005531243 0.032625597 -0.04743879 -0.015863366 -0.022479977 -0.0070405975
0.021030115 4.6918856e-05 -0.043956883 -0.046091612 -0.002535916 -0.020601017 -0.029128877 -0.0103216125
-0.01770613 0.011474961 0.0077333855 -0.025605446 0.050066803 -0.008354024 0.013947855 -0.053415075
-0.030244952 -0.04367448 -0.0035295717 -0.046193868 -0.023290912 -0.0076992502 -0.03336208 0.01882629
-0.032064058 -0.0373523 -0.036082607 0.017129317 0.003405785 -0.065335326 -0.018580882 0.012402209
-0.031776354 -0.005209265 -0.0087797865 -0.0072525227 -0.03145743 -0.015158299 -0.03294718 -0.023757027
-0.050591126 -0.040906418 -0.048217308 0.01743593 0.011341575 -0.05180508 -0.038234435 -0.010476927
-0.01044137 -0.009290887 0.042061165 0.0049776006 -0.03367506 -0.044091754 -0.037562855 -0.04584683
-0.022765197 0.009781387 0.00889618 -0.028595626 -0.052923344 0.02671192 -0.0055708704 0.04329683
0.009611613 -0.05581598 0.023293972 -0.031895198 -0.012196359 0.0039492906 -0.06308096 -0.01171499
-0.033866726 -0.023630237 -0.031933684 -0.014959173 -0.023081882 -0.03175133 -0.023054384 -0.0029455312
-0.07226514 -0.009840356 0.009533469 -0.022571716 0.05625213 0.009482887 -0.011034065 -0.046263758
-0.0092211105 0.061423708 -0.07458879 0.0053584706 -0.030408336 0.0279213 0.018444777 -0.061530832
-0.0140413325 -0.03288265 0.012749226 0.009946896 -0.0052187713 -0.026727976 -0.019539973 -0.04978796
0.030287271 0.001955351 -0.003788025 0.013066231 0.015336962 -0.009707384 -0.0406645 -0.034622405
-0.011662709 -0.017807232 0.026633823 0.009813772 0.0062938645 -0.0039067203 -0.040202823 0.04800747
-0.06916457 -0.017457329 0.02942493 -0.011559871 -0.04213428 -0.05409777 -0.048634786 -0.029399494
0.019038292 -0.0019499747 0.03936981 0.01882037 0.06400767 0.056444533 -0.032894004 -0.018885711

conv5.bias f4 [24]
00000000: aa8b c03c 8f2c 62bd f705 b1bd 8e50 88bd
00000010: a7af adbd a369 c6bc a4b5 3dbd 1aac 05bd
00000020: 4503 54bd 87a9 a1bc 28af 95bd 60d5 8ebd
00000030: 2929 0ebe 41da b4bd b689 bfbd ec56 a9bd
00000040: 3d12 b1bd b2eb a6bc 17ee afbd 1652 92bd
00000050: a59d b6bd 54d9 ffbd 97a0 a5bd 2192 b7bd
0.023504097 -0.055218276 -0.08643716 -0.066559896 -0.08480769 -0.024220293 -0.046315804 -0.032634832
-0.05176093 -0.019734157 -0.07308799 -0.06974292 -0.13882889 -0.08830691 -0.09352438 -0.08268532
-0.08646057 -0.02037606 -0.08590334 -0.07144563 -0.08916787 -0.12492624 -0.08087271 -0.08963419

bn5.weight f4 [24]
00000000: 29b0 4d3f a6ea 5a3f 5a5d 4a3f a44c 563f
00000010: 4fd5 533f 23b2 5a3f 93fb 4f3f 139d 4b3f
00000020: ba25 493f 2e6c 4e3f 9f21 493f a6aa 4c3f
00000030: f298 343f 17b7 4d3f e853 5f3f 75a1 443f
00000040: 9c9e 513f 1184 5b3f dc5b 4b3f 135a 523f
00000050: 7b6b 563f 27ab 483f 3dad 523f 8444 443f
0.80346924 0.85514295 0.79048693 0.83710694 0.8274736 0.85428065 0.81243247 0.7953655
0.7857319 0.8063382 0.78566927 0.7994789 0.70545876 0.803575 0.87237406 0.76808864
0.81882644 0.8574839 0.7943704 0.8216869 0.8375775 0.7838616 0.8229559 0.76667047

bn5.bias f4 [24]
00000000: fc85 1bbe 1d61 21be 9b97 5abe e629 0bbe
00000010: 27f5 33be 4d77 0fbe 4485 46be 4632 30be
00000020: c294 15be 7d28 1fbe 0078 03be e486 38be
00000030: 04ea 70be 01df 0ebe 9605 04be afac 56be
00000040: 915c 2ebe 1954 f6bd e1bb 21be 71a3 26be
00000050: 40c9 4ebe 5110 5bbe 8d7d 3cbe 0194 5bbe
-0.1518783 -0.15759702 -0.21346895 -0.13590202 -0.17573987 -0.14010353 -0.19386774 -0.17206678
-0.14607528 -0.15542789 -0.12838745 -0.18020207 -0.2352677 -0.13952257 -0.12892756 -0.20964311
-0.17027499 -0.12027759 -0.15794326 -0.16273285 -0.20193958 -0.21392943 -0.18407269 -0.21443178

bn5.running_mean f4 [24]
00000000: cd69 d83e e8f9 aabf 43de 5ebf afa2 78bf
00000010: 9bb9 61bf 953c b33d 9e92 91bf 0bfc 5ebf
00000020: 021f 8abf 3404 3bbf 1fe0 56bf b125 e1be
00000030: e651 bcbf d288 a0bf 9b6d bdbf 7897 87bf
00000040: c571 89bf 2ed3 03bf c879 83bf e5ca 67bf
00000050: f8e0 1bbf 8bdf 2d3e 702d 5bbf d2da 82bf
0.4226822 -1.3357515 -0.87057894 -0.97123235 -0.88173836 0.087517895 -1.1372869 -0.8710334
-1.0790713 -0.7305329 -0.8393573 -0.4397407 -1.4712493 -1.2541754 -1.4799074 -1.05931
-1.0737845 -0.5149411 -1.027154 -0.9054397 -0.6089015 0.16979806 -0.8561621 -1.0223029

bn5.running_var f4 [24]
00000000: 904f 0340 1cdd 8440 e3cf 2840 ce86 2c40
00000010: 86a8 1c40 030c 0240 7069 2440 50eb 3640
00000020: e176 7d40 3dc2 8140 32c5 b93f de60 1740
00000030: 54fc 5040 618a 7340 9313 8440 10b6 4f40
00000040: ed4f 2640 0135 7a40 8794 8040 7561 1f40
00000050: eba5 3e40 aa75 2340 018e 2340 78ff c23f
2.051731 4.151991 2.6376884 2.6957278 2.4477859 2.0319831 2.5689354 2.8581123
3.9603808 4.0549607 1.4513304 2.3652873 3.265401 3.805321 4.1273894 3.2454872
2.5986283 3.909485 4.018131 2.4903233 2.9788768 2.5540566 2.5555422 1.5234213

fc1.weight f4 [10, 2400]
00000000: c3c8 61bc 2b44 4cbc 2368 663b ae51 253b
00000010: bdba 613c 6590 c3bc 0228 0cbc 64df dcbb
00000020: 5379 863c c183 4cbc 09e0 d9bc 3fae 063a
00000030: d6a4 b53b 78f1 9cbc a0eb 143b bc9c 72bc
00000040: 7ae7 9ebc 7eb3 173c d258 0e3b 9566 853c
00000050: 7050 e3bc 1166 193c b04d 80bb 4437 dcbb
00000060: 1c48 96bb 51a1 8bbb 849e e2bc 4b8d 553c
00000070: 353a 16bb a9d7 dc3c d407 81ba 6b9d 1cbb
00000080: 9b7a d7bb f698 233c 9654 d9bb def0 1f3c
00000090: 914a 37bc 665c ab3c aeae 34ba e27a 313c
000000a0: 296c 073c 714b 9ebc 5936 83bc 444c 35ba
000000b0: 41c5 69bc 736b dfbb e95b 2dbc 8b30 b63c
000000c0: 7099 dbbb 5924 a53c 64bf 69bc d9b9 ab3c
000000d0: 2025 cabc b836 793c 7748 babb 0e85 aebc
000000e0: 472b 413c 421e b03b 197d 303b 98cc 5d3c
000000f0: 12fa 76bc 7d26 19bc c6c9 2cbc a2f5 bebc
00000100: f1f5 4dbc e864 0cbd 3c49 c7bb 9f8e 313c
00000110: 28bd e3bc e99b 00bc 8c1e 69ba 6bd4 9a3c
00000120: b268 81bc 04f9 503c 5fc8 0e3c b1f5 a0bc
00000130: 540f 3dbc 64cb 96bc cc63 15bc 5a33 63bc
00000140: 1635 4a3c 5708 0b3c f861 953b 36a1 61bb
00000150: f08a 95bc 0199 cf3a 8889 503c c768 fe3b
00000160: fc8a a13c a437 1f3c 852d 2e3c 735d 023d
00000170: d863 15bc 570b b2bb d152 633c 97b0 393c
00000180: d051 82bb 8773 7b3c 1c9e 973c be41 d13b
00000190: 165a c5bc 6e5d 13bd 52e2 273c a13f 3d3d
000001a0: 8a84 3b3d 0aa4 2cbc cf36 133d 1cc3 8c3c
000001b0: 862c 083c 2f83 2a3b fcbf 2abd a357 c3bc
000001c0: 8b69 8f3c 0ef0 7c3c fcfb 423d 1bac 003c
000001d0: 4dce 5ebc cfb4 83bc 19d0 b53c 7568 193c
000001e0: f82f 48bd 66b9 b0bc 5b42 8dbc 87be e2bc
000001f0: da7a d63b 7bab 5c3a 93a3 51bd 7fdd 61bd
00000200: e0dd c83c 3c77 a1bc 00bb cbbb 0454 efbc
00000210: 50a1 cabc fa98 1bbd 1472 993b 9222 b53c
00000220: c38a 2fbd ab85 dfbd c7ad 353d f938 ff3c
00000230: 5411 893c ae13 883a 8cef 10bd 4aa8 0bbd
00000240: a4b5 19bc 028e f5bc d8e4 34bd 3a7f a2bd
00000250: d248 923c 6302 bb3c 6695 ae3c ad89 ebbc
00000260: 68e8 d3bc 3aaf 3ebc a755 833c e3fb a8bc
00000270: d805 863b 9206 16bc a4a8 fa3b 4cd0 c2ba
00000280: 0d10 cd3c a05c bcbc 527c 07bd c62e a4bc
00000290: 281b f6ba 1702 d03c 57ef 4bba fa39 8f3c
000002a0: 2d4f 103d 93d7 83bc 5396 663d fe8d 8a3a
000002b0: 5560 78bc 359f 9a3c 593d eebb c6da 22bd
000002c0: 3089 44bd 2bdf 533c 7378 573d fed7 52bc
000002d0: 7b0b ca3d dea5 2ebc 3643 2bbd c441 2cb9
000002e0: 2884 073d 77b2 e439 8528 e2ba 1f63 2f3d
000002f0: 9ff5 363d ce02 ee3c a21b 913d 4ef4 b7bb
00000300: 3631 afbc 3c13 65ba 6942 f53c 10de f93c
00000310: 4aec dbbb a5de cb3c 328f 243d c62f 883a
00000320: ce2f 8e3c a35b 14bc 1240 49bc fb65 37bd
00000330: 3407 bdbc 1f92 32bd 9728 67bb 4e85 e33c
00000340: 7b34 57bd 5990 5a3a 0b8f 3f3b 8ac2 1c3d
00000350: c351 2a3d efc4 703d ae67 033e 1ea7 a23d
00000360: dd65 983d 22ab 683c c2c1 5fbd 3371 85bc
00000370: 9bc7 873c e5df e73c bfeb ac3c 8074 ad3c
00000380: 3f87 f9bb 53e8 a3bd 4f45 87bc 28cd 623d
00000390: 059f 10bd c8f6 d1ba a39a babb 95aa ec3b
000003a0: 4fa1 f7bb fe9c f73c c8a3 183d a039 63bc
000003b0: 9d18 f23c a5c7 443d 9ca2 983c 4b86 3ebc
000003c0: de78 dfbb ca8f 1bbb a077 51bd a580 84bd
000003d0: 9dd1 913d 91f9 203d 2e92 663d c81f fbbb
000003e0: ba34 443c 4708 edbc d16a 2b3c 7826 a6bc
000003f0: b77b ccbc 44d1 8fbd 6522 ec3c 4647 203c
-0.0137807755 -0.012467424 0.0035157285 0.0025225687 0.013777432 -0.023872564 -0.0085544605 -0.0067404974
0.016415274 -0.012482584 -0.026596086 0.0005137659 0.0055433316 -0.01915811 0.0022723451 -0.014807876
-0.019397486 0.009259103 0.0021720422 0.016284266 -0.027748317 0.009362713 -0.003915511 -0.0067204554
-0.004586233 -0.004261174 -0.027663477 0.013034175 -0.0022922878 0.026958304 -0.0009844252 -0.002389754
-0.006575895 0.009985199 -0.006632398 0.009762017 -0.011187212 0.020918082 -0.00068924844 0.01083252
0.0082655335 -0.019323083 -0.016017126 -0.00069159665 -0.01426822 -0.006818229 -0.010580995 0.022239944
-0.006701641 0.020158933 -0.0142668225 0.020962643 -0.024675906 0.0152108 -0.005684908 -0.02130368
0.011790103 0.0053747008 0.0026930033 0.0135375485 -0.01507427 -0.009347555 -0.010546153 -0.023310486
-0.012570844 -0.03427592 -0.0060817283 0.010837226 -0.027800158 -0.007849672 -0.00088927965 0.018900117
-0.015796993 0.012754682 0.008714764 -0.019648405 -0.011539299 -0.018407531 -0.009118032 -0.013867224
0.012341758 0.008485875 0.004558798 -0.0034428365 -0.018254727 0.0015838445 0.0127281025 0.0077639553
0.019719593 0.009717856 0.01063097 0.0318274 -0.009118043 -0.0054334807 0.013874725 0.011333606
-0.003977038 0.015347368 0.01850801 0.006386011 -0.024090808 -0.035977773 0.01024683 0.04620326
0.045780696 -0.010537157 0.03594094 0.01718288 0.008311396 0.0026018133 -0.041686997 -0.0238455
0.017506381 0.015438093 0.047603592 0.007853533 -0.013598991 -0.016077427 0.022193955 0.009363283
-0.04887387 -0.02157278 -0.017243555 -0.027678741 0.0065454068 0.00084178866 -0.051181387 -0.055142876
0.02451986 -0.019710176 -0.0062173605 -0.029214866 -0.024735123 -0.037987687 0.0046827886 0.022111211
-0.042856943 -0.10914167 0.04435518 0.031155096 0.016731896 0.0010381842 -0.0353847 -0.03409604
-0.009381685 -0.029974941 -0.044163555 -0.07934423 0.017856989 0.022828287 0.021311473 -0.028752172
-0.025867656 -0.011638457 0.016032053 -0.020627921 0.004090052 -0.00915684 0.007649498 -0.0014863103
0.025032068 -0.022993386 -0.033077545 -0.020041835 -0.0018776404 0.025391622 -0.00077795 0.0174837
0.035231758 -0.016094005 0.056295704 0.0010570881 -0.015159686 0.018874744 -0.007270497 -0.03975942
-0.047982395 0.012931625 0.052605104 -0.012868879 0.09865471 -0.010659663 -0.041812144 -0.00016427698
0.03308502 0.00043620515 -0.0017254507 0.04281914 0.044667836 0.029054072 0.07085349 -0.00561384
-0.02138577 -0.0008738523 0.029938893 0.030501395 -0.0067115175 0.024886439 0.040175624 0.0010390214
0.01735678 -0.009055051 -0.012283342 -0.04477499 -0.023074724 -0.043596383 -0.0035271996 0.027773526
-0.052540284 0.00083375495 0.0029229547 0.038271464 0.04158188 0.05878156 0.1283252 0.07942031
0.07441304 0.0142009575 -0.05462814 -0.01628933 0.016574671 0.028305003 0.021108506 0.021173716
-0.0076149995 -0.08003297 -0.016512541 0.055371433 -0.035307903 -0.0016018981 -0.0056947037 0.0072224834
-0.0075570713 0.030226227 0.03726557 -0.013868719 0.029552752 0.04804196 0.018632226 -0.011628698
-0.0068198284 -0.0023736828 -0.051139474 -0.064698495 0.07120059 0.039300505 0.05629175 -0.0076637007
0.011975462 -0.028934611 0.010462479 -0.020282015 -0.024961336 -0.07022336 0.028824994 0.009782618

fc1.bias f4 [10]
00000000: b9ad dd3c a558 963c 73bb b2be 85f0 c6be
00000010: 79b9 b1be 9d8a c3be d871 cfbe 12b6 c7be
00000020: 36ce 9bbe 7fc4 aabe
0.027060376 0.018352816 -0.34908637 -0.38855377 -0.34711817 -0.3819169 -0.40516543 -0.39006096
-0.30430764 -0.3335304
